<?xml version="1.0"?>
<net name="TensorFlow_Lite_Frontend_IR" version="11">
	<layers>
		<layer id="0" name="input_1" type="Parameter" version="opset1">
			<data shape="1,224,224,3" element_type="f32" />
			<output>
				<port id="0" precision="FP32" names="input_1">
					<dim>1</dim>
					<dim>224</dim>
					<dim>224</dim>
					<dim>3</dim>
				</port>
			</output>
		</layer>
		<layer id="1" name="Constant_109" type="Const" version="opset1">
			<data element_type="i64" shape="4" offset="0" size="32" />
			<output>
				<port id="0" precision="I64">
					<dim>4</dim>
				</port>
			</output>
		</layer>
		<layer id="2" name="Transpose_110" type="Transpose" version="opset1">
			<input>
				<port id="0" precision="FP32">
					<dim>1</dim>
					<dim>224</dim>
					<dim>224</dim>
					<dim>3</dim>
				</port>
				<port id="1" precision="I64">
					<dim>4</dim>
				</port>
			</input>
			<output>
				<port id="2" precision="FP32">
					<dim>1</dim>
					<dim>3</dim>
					<dim>224</dim>
					<dim>224</dim>
				</port>
			</output>
		</layer>
		<layer id="3" name="Transpose_1565_compressed" type="Const" version="opset1">
			<data element_type="f16" shape="24, 3, 3, 3" offset="32" size="1296" />
			<output>
				<port id="0" precision="FP16" names="model_1/model/conv2d/Conv2D_dequantize">
					<dim>24</dim>
					<dim>3</dim>
					<dim>3</dim>
					<dim>3</dim>
				</port>
			</output>
		</layer>
		<layer id="4" name="Transpose_1565" type="Convert" version="opset1">
			<data destination_type="f32" />
			<rt_info>
				<attribute name="decompression" version="0" />
			</rt_info>
			<input>
				<port id="0" precision="FP16">
					<dim>24</dim>
					<dim>3</dim>
					<dim>3</dim>
					<dim>3</dim>
				</port>
			</input>
			<output>
				<port id="1" precision="FP32">
					<dim>24</dim>
					<dim>3</dim>
					<dim>3</dim>
					<dim>3</dim>
				</port>
			</output>
		</layer>
		<layer id="5" name="Convolution_113" type="Convolution" version="opset1">
			<data strides="2, 2" dilations="1, 1" pads_begin="0, 0" pads_end="0, 0" auto_pad="same_upper" />
			<input>
				<port id="0" precision="FP32">
					<dim>1</dim>
					<dim>3</dim>
					<dim>224</dim>
					<dim>224</dim>
				</port>
				<port id="1" precision="FP32">
					<dim>24</dim>
					<dim>3</dim>
					<dim>3</dim>
					<dim>3</dim>
				</port>
			</input>
			<output>
				<port id="2" precision="FP32">
					<dim>1</dim>
					<dim>24</dim>
					<dim>112</dim>
					<dim>112</dim>
				</port>
			</output>
		</layer>
		<layer id="6" name="Transpose_999_compressed" type="Const" version="opset1">
			<data element_type="f16" shape="1, 24, 1, 1" offset="1328" size="48" />
			<output>
				<port id="0" precision="FP16">
					<dim>1</dim>
					<dim>24</dim>
					<dim>1</dim>
					<dim>1</dim>
				</port>
			</output>
		</layer>
		<layer id="7" name="Transpose_999" type="Convert" version="opset1">
			<data destination_type="f32" />
			<rt_info>
				<attribute name="decompression" version="0" />
			</rt_info>
			<input>
				<port id="0" precision="FP16">
					<dim>1</dim>
					<dim>24</dim>
					<dim>1</dim>
					<dim>1</dim>
				</port>
			</input>
			<output>
				<port id="1" precision="FP32">
					<dim>1</dim>
					<dim>24</dim>
					<dim>1</dim>
					<dim>1</dim>
				</port>
			</output>
		</layer>
		<layer id="8" name="Transpose_1001" type="Add" version="opset1">
			<data auto_broadcast="numpy" />
			<input>
				<port id="0" precision="FP32">
					<dim>1</dim>
					<dim>24</dim>
					<dim>112</dim>
					<dim>112</dim>
				</port>
				<port id="1" precision="FP32">
					<dim>1</dim>
					<dim>24</dim>
					<dim>1</dim>
					<dim>1</dim>
				</port>
			</input>
			<output>
				<port id="2" precision="FP32">
					<dim>1</dim>
					<dim>24</dim>
					<dim>112</dim>
					<dim>112</dim>
				</port>
			</output>
		</layer>
		<layer id="9" name="Transpose_1003" type="Clamp" version="opset1">
			<data min="0" max="6" />
			<input>
				<port id="0" precision="FP32">
					<dim>1</dim>
					<dim>24</dim>
					<dim>112</dim>
					<dim>112</dim>
				</port>
			</input>
			<output>
				<port id="1" precision="FP32">
					<dim>1</dim>
					<dim>24</dim>
					<dim>112</dim>
					<dim>112</dim>
				</port>
			</output>
		</layer>
		<layer id="10" name="model_1/model/batch_normalization_1/FusedBatchNormV3;model_1/model/depthwise_conv2d/depthwise;model_1/model/conv2d_5/Conv2D" type="Const" version="opset1">
			<data element_type="f16" shape="1, 3, 3, 24" offset="1376" size="432" />
			<output>
				<port id="0" precision="FP16" names="model_1/model/batch_normalization_1/FusedBatchNormV3;model_1/model/depthwise_conv2d/depthwise;model_1/model/conv2d_5/Conv2D">
					<dim>1</dim>
					<dim>3</dim>
					<dim>3</dim>
					<dim>24</dim>
				</port>
			</output>
		</layer>
		<layer id="11" name="3" type="Convert" version="opset1">
			<data destination_type="f32" />
			<rt_info>
				<attribute name="decompression" version="0" />
			</rt_info>
			<input>
				<port id="0" precision="FP16">
					<dim>1</dim>
					<dim>3</dim>
					<dim>3</dim>
					<dim>24</dim>
				</port>
			</input>
			<output>
				<port id="1" precision="FP32" names="model_1/model/batch_normalization_1/FusedBatchNormV3;model_1/model/depthwise_conv2d/depthwise;model_1/model/conv2d_5/Conv2D_dequantize">
					<dim>1</dim>
					<dim>3</dim>
					<dim>3</dim>
					<dim>24</dim>
				</port>
			</output>
		</layer>
		<layer id="12" name="Constant_3841" type="Const" version="opset1">
			<data element_type="i64" shape="4" offset="1808" size="32" />
			<rt_info>
				<attribute name="precise" version="0" />
			</rt_info>
			<output>
				<port id="0" precision="I64">
					<dim>4</dim>
				</port>
			</output>
		</layer>
		<layer id="13" name="Transpose_121" type="Reshape" version="opset1">
			<data special_zero="true" />
			<input>
				<port id="0" precision="FP32">
					<dim>1</dim>
					<dim>3</dim>
					<dim>3</dim>
					<dim>24</dim>
				</port>
				<port id="1" precision="I64">
					<dim>4</dim>
				</port>
			</input>
			<output>
				<port id="2" precision="FP32">
					<dim>3</dim>
					<dim>3</dim>
					<dim>24</dim>
					<dim>1</dim>
				</port>
			</output>
		</layer>
		<layer id="14" name="Constant_128" type="Const" version="opset1">
			<data element_type="i64" shape="1" offset="1840" size="8" />
			<output>
				<port id="0" precision="I64">
					<dim>1</dim>
				</port>
			</output>
		</layer>
		<layer id="15" name="Transpose_1006" type="Unsqueeze" version="opset1">
			<input>
				<port id="0" precision="FP32">
					<dim>3</dim>
					<dim>3</dim>
					<dim>24</dim>
					<dim>1</dim>
				</port>
				<port id="1" precision="I64">
					<dim>1</dim>
				</port>
			</input>
			<output>
				<port id="2" precision="FP32">
					<dim>3</dim>
					<dim>3</dim>
					<dim>24</dim>
					<dim>1</dim>
					<dim>1</dim>
				</port>
			</output>
		</layer>
		<layer id="16" name="Constant_1007" type="Const" version="opset1">
			<data element_type="i64" shape="5" offset="1848" size="40" />
			<output>
				<port id="0" precision="I64">
					<dim>5</dim>
				</port>
			</output>
		</layer>
		<layer id="17" name="Transpose_131" type="Transpose" version="opset1">
			<input>
				<port id="0" precision="FP32">
					<dim>3</dim>
					<dim>3</dim>
					<dim>24</dim>
					<dim>1</dim>
					<dim>1</dim>
				</port>
				<port id="1" precision="I64">
					<dim>5</dim>
				</port>
			</input>
			<output>
				<port id="2" precision="FP32">
					<dim>24</dim>
					<dim>1</dim>
					<dim>1</dim>
					<dim>3</dim>
					<dim>3</dim>
				</port>
			</output>
		</layer>
		<layer id="18" name="GroupConvolution_132" type="GroupConvolution" version="opset1">
			<data strides="1, 1" pads_begin="0, 0" pads_end="0, 0" dilations="1, 1" auto_pad="same_upper" />
			<input>
				<port id="0" precision="FP32">
					<dim>1</dim>
					<dim>24</dim>
					<dim>112</dim>
					<dim>112</dim>
				</port>
				<port id="1" precision="FP32">
					<dim>24</dim>
					<dim>1</dim>
					<dim>1</dim>
					<dim>3</dim>
					<dim>3</dim>
				</port>
			</input>
			<output>
				<port id="2" precision="FP32">
					<dim>1</dim>
					<dim>24</dim>
					<dim>112</dim>
					<dim>112</dim>
				</port>
			</output>
		</layer>
		<layer id="19" name="Transpose_1012_compressed" type="Const" version="opset1">
			<data element_type="f16" shape="1, 24, 1, 1" offset="1888" size="48" />
			<output>
				<port id="0" precision="FP16">
					<dim>1</dim>
					<dim>24</dim>
					<dim>1</dim>
					<dim>1</dim>
				</port>
			</output>
		</layer>
		<layer id="20" name="Transpose_1012" type="Convert" version="opset1">
			<data destination_type="f32" />
			<rt_info>
				<attribute name="decompression" version="0" />
			</rt_info>
			<input>
				<port id="0" precision="FP16">
					<dim>1</dim>
					<dim>24</dim>
					<dim>1</dim>
					<dim>1</dim>
				</port>
			</input>
			<output>
				<port id="1" precision="FP32">
					<dim>1</dim>
					<dim>24</dim>
					<dim>1</dim>
					<dim>1</dim>
				</port>
			</output>
		</layer>
		<layer id="21" name="Transpose_1014" type="Add" version="opset1">
			<data auto_broadcast="numpy" />
			<input>
				<port id="0" precision="FP32">
					<dim>1</dim>
					<dim>24</dim>
					<dim>112</dim>
					<dim>112</dim>
				</port>
				<port id="1" precision="FP32">
					<dim>1</dim>
					<dim>24</dim>
					<dim>1</dim>
					<dim>1</dim>
				</port>
			</input>
			<output>
				<port id="2" precision="FP32">
					<dim>1</dim>
					<dim>24</dim>
					<dim>112</dim>
					<dim>112</dim>
				</port>
			</output>
		</layer>
		<layer id="22" name="Transpose_1016" type="Clamp" version="opset1">
			<data min="0" max="6" />
			<input>
				<port id="0" precision="FP32">
					<dim>1</dim>
					<dim>24</dim>
					<dim>112</dim>
					<dim>112</dim>
				</port>
			</input>
			<output>
				<port id="1" precision="FP32">
					<dim>1</dim>
					<dim>24</dim>
					<dim>112</dim>
					<dim>112</dim>
				</port>
			</output>
		</layer>
		<layer id="23" name="Transpose_1579_compressed" type="Const" version="opset1">
			<data element_type="f16" shape="16, 24, 1, 1" offset="1936" size="768" />
			<output>
				<port id="0" precision="FP16" names="model_1/model/conv2d_1/Conv2D_dequantize">
					<dim>16</dim>
					<dim>24</dim>
					<dim>1</dim>
					<dim>1</dim>
				</port>
			</output>
		</layer>
		<layer id="24" name="Transpose_1579" type="Convert" version="opset1">
			<data destination_type="f32" />
			<rt_info>
				<attribute name="decompression" version="0" />
			</rt_info>
			<input>
				<port id="0" precision="FP16">
					<dim>16</dim>
					<dim>24</dim>
					<dim>1</dim>
					<dim>1</dim>
				</port>
			</input>
			<output>
				<port id="1" precision="FP32">
					<dim>16</dim>
					<dim>24</dim>
					<dim>1</dim>
					<dim>1</dim>
				</port>
			</output>
		</layer>
		<layer id="25" name="Convolution_145" type="Convolution" version="opset1">
			<data strides="1, 1" dilations="1, 1" pads_begin="0, 0" pads_end="0, 0" auto_pad="same_upper" />
			<input>
				<port id="0" precision="FP32">
					<dim>1</dim>
					<dim>24</dim>
					<dim>112</dim>
					<dim>112</dim>
				</port>
				<port id="1" precision="FP32">
					<dim>16</dim>
					<dim>24</dim>
					<dim>1</dim>
					<dim>1</dim>
				</port>
			</input>
			<output>
				<port id="2" precision="FP32">
					<dim>1</dim>
					<dim>16</dim>
					<dim>112</dim>
					<dim>112</dim>
				</port>
			</output>
		</layer>
		<layer id="26" name="Transpose_1020_compressed" type="Const" version="opset1">
			<data element_type="f16" shape="1, 16, 1, 1" offset="2704" size="32" />
			<output>
				<port id="0" precision="FP16">
					<dim>1</dim>
					<dim>16</dim>
					<dim>1</dim>
					<dim>1</dim>
				</port>
			</output>
		</layer>
		<layer id="27" name="Transpose_1020" type="Convert" version="opset1">
			<data destination_type="f32" />
			<rt_info>
				<attribute name="decompression" version="0" />
			</rt_info>
			<input>
				<port id="0" precision="FP16">
					<dim>1</dim>
					<dim>16</dim>
					<dim>1</dim>
					<dim>1</dim>
				</port>
			</input>
			<output>
				<port id="1" precision="FP32">
					<dim>1</dim>
					<dim>16</dim>
					<dim>1</dim>
					<dim>1</dim>
				</port>
			</output>
		</layer>
		<layer id="28" name="Transpose_1022" type="Add" version="opset1">
			<data auto_broadcast="numpy" />
			<input>
				<port id="0" precision="FP32">
					<dim>1</dim>
					<dim>16</dim>
					<dim>112</dim>
					<dim>112</dim>
				</port>
				<port id="1" precision="FP32">
					<dim>1</dim>
					<dim>16</dim>
					<dim>1</dim>
					<dim>1</dim>
				</port>
			</input>
			<output>
				<port id="2" precision="FP32">
					<dim>1</dim>
					<dim>16</dim>
					<dim>112</dim>
					<dim>112</dim>
				</port>
			</output>
		</layer>
		<layer id="29" name="Transpose_1587_compressed" type="Const" version="opset1">
			<data element_type="f16" shape="64, 16, 1, 1" offset="2736" size="2048" />
			<output>
				<port id="0" precision="FP16" names="model_1/model/conv2d_2/Conv2D_dequantize">
					<dim>64</dim>
					<dim>16</dim>
					<dim>1</dim>
					<dim>1</dim>
				</port>
			</output>
		</layer>
		<layer id="30" name="Transpose_1587" type="Convert" version="opset1">
			<data destination_type="f32" />
			<rt_info>
				<attribute name="decompression" version="0" />
			</rt_info>
			<input>
				<port id="0" precision="FP16">
					<dim>64</dim>
					<dim>16</dim>
					<dim>1</dim>
					<dim>1</dim>
				</port>
			</input>
			<output>
				<port id="1" precision="FP32">
					<dim>64</dim>
					<dim>16</dim>
					<dim>1</dim>
					<dim>1</dim>
				</port>
			</output>
		</layer>
		<layer id="31" name="Convolution_157" type="Convolution" version="opset1">
			<data strides="1, 1" dilations="1, 1" pads_begin="0, 0" pads_end="0, 0" auto_pad="same_upper" />
			<input>
				<port id="0" precision="FP32">
					<dim>1</dim>
					<dim>16</dim>
					<dim>112</dim>
					<dim>112</dim>
				</port>
				<port id="1" precision="FP32">
					<dim>64</dim>
					<dim>16</dim>
					<dim>1</dim>
					<dim>1</dim>
				</port>
			</input>
			<output>
				<port id="2" precision="FP32">
					<dim>1</dim>
					<dim>64</dim>
					<dim>112</dim>
					<dim>112</dim>
				</port>
			</output>
		</layer>
		<layer id="32" name="Transpose_1026_compressed" type="Const" version="opset1">
			<data element_type="f16" shape="1, 64, 1, 1" offset="4784" size="128" />
			<output>
				<port id="0" precision="FP16">
					<dim>1</dim>
					<dim>64</dim>
					<dim>1</dim>
					<dim>1</dim>
				</port>
			</output>
		</layer>
		<layer id="33" name="Transpose_1026" type="Convert" version="opset1">
			<data destination_type="f32" />
			<rt_info>
				<attribute name="decompression" version="0" />
			</rt_info>
			<input>
				<port id="0" precision="FP16">
					<dim>1</dim>
					<dim>64</dim>
					<dim>1</dim>
					<dim>1</dim>
				</port>
			</input>
			<output>
				<port id="1" precision="FP32">
					<dim>1</dim>
					<dim>64</dim>
					<dim>1</dim>
					<dim>1</dim>
				</port>
			</output>
		</layer>
		<layer id="34" name="Transpose_1028" type="Add" version="opset1">
			<data auto_broadcast="numpy" />
			<input>
				<port id="0" precision="FP32">
					<dim>1</dim>
					<dim>64</dim>
					<dim>112</dim>
					<dim>112</dim>
				</port>
				<port id="1" precision="FP32">
					<dim>1</dim>
					<dim>64</dim>
					<dim>1</dim>
					<dim>1</dim>
				</port>
			</input>
			<output>
				<port id="2" precision="FP32">
					<dim>1</dim>
					<dim>64</dim>
					<dim>112</dim>
					<dim>112</dim>
				</port>
			</output>
		</layer>
		<layer id="35" name="Transpose_1030" type="Clamp" version="opset1">
			<data min="0" max="6" />
			<input>
				<port id="0" precision="FP32">
					<dim>1</dim>
					<dim>64</dim>
					<dim>112</dim>
					<dim>112</dim>
				</port>
			</input>
			<output>
				<port id="1" precision="FP32">
					<dim>1</dim>
					<dim>64</dim>
					<dim>112</dim>
					<dim>112</dim>
				</port>
			</output>
		</layer>
		<layer id="36" name="model_1/model/batch_normalization_4/FusedBatchNormV3;model_1/model/depthwise_conv2d_1/depthwise" type="Const" version="opset1">
			<data element_type="f16" shape="1, 3, 3, 64" offset="4912" size="1152" />
			<output>
				<port id="0" precision="FP16" names="model_1/model/batch_normalization_4/FusedBatchNormV3;model_1/model/depthwise_conv2d_1/depthwise">
					<dim>1</dim>
					<dim>3</dim>
					<dim>3</dim>
					<dim>64</dim>
				</port>
			</output>
		</layer>
		<layer id="37" name="12" type="Convert" version="opset1">
			<data destination_type="f32" />
			<rt_info>
				<attribute name="decompression" version="0" />
			</rt_info>
			<input>
				<port id="0" precision="FP16">
					<dim>1</dim>
					<dim>3</dim>
					<dim>3</dim>
					<dim>64</dim>
				</port>
			</input>
			<output>
				<port id="1" precision="FP32" names="model_1/model/batch_normalization_4/FusedBatchNormV3;model_1/model/depthwise_conv2d_1/depthwise_dequantize">
					<dim>1</dim>
					<dim>3</dim>
					<dim>3</dim>
					<dim>64</dim>
				</port>
			</output>
		</layer>
		<layer id="38" name="Constant_3849" type="Const" version="opset1">
			<data element_type="i64" shape="4" offset="6064" size="32" />
			<rt_info>
				<attribute name="precise" version="0" />
			</rt_info>
			<output>
				<port id="0" precision="I64">
					<dim>4</dim>
				</port>
			</output>
		</layer>
		<layer id="39" name="Transpose_165" type="Reshape" version="opset1">
			<data special_zero="true" />
			<input>
				<port id="0" precision="FP32">
					<dim>1</dim>
					<dim>3</dim>
					<dim>3</dim>
					<dim>64</dim>
				</port>
				<port id="1" precision="I64">
					<dim>4</dim>
				</port>
			</input>
			<output>
				<port id="2" precision="FP32">
					<dim>3</dim>
					<dim>3</dim>
					<dim>64</dim>
					<dim>1</dim>
				</port>
			</output>
		</layer>
		<layer id="40" name="Constant_172" type="Const" version="opset1">
			<data element_type="i64" shape="1" offset="1840" size="8" />
			<output>
				<port id="0" precision="I64">
					<dim>1</dim>
				</port>
			</output>
		</layer>
		<layer id="41" name="Transpose_1033" type="Unsqueeze" version="opset1">
			<input>
				<port id="0" precision="FP32">
					<dim>3</dim>
					<dim>3</dim>
					<dim>64</dim>
					<dim>1</dim>
				</port>
				<port id="1" precision="I64">
					<dim>1</dim>
				</port>
			</input>
			<output>
				<port id="2" precision="FP32">
					<dim>3</dim>
					<dim>3</dim>
					<dim>64</dim>
					<dim>1</dim>
					<dim>1</dim>
				</port>
			</output>
		</layer>
		<layer id="42" name="Constant_1034" type="Const" version="opset1">
			<data element_type="i64" shape="5" offset="1848" size="40" />
			<output>
				<port id="0" precision="I64">
					<dim>5</dim>
				</port>
			</output>
		</layer>
		<layer id="43" name="Transpose_175" type="Transpose" version="opset1">
			<input>
				<port id="0" precision="FP32">
					<dim>3</dim>
					<dim>3</dim>
					<dim>64</dim>
					<dim>1</dim>
					<dim>1</dim>
				</port>
				<port id="1" precision="I64">
					<dim>5</dim>
				</port>
			</input>
			<output>
				<port id="2" precision="FP32">
					<dim>64</dim>
					<dim>1</dim>
					<dim>1</dim>
					<dim>3</dim>
					<dim>3</dim>
				</port>
			</output>
		</layer>
		<layer id="44" name="GroupConvolution_176" type="GroupConvolution" version="opset1">
			<data strides="2, 2" pads_begin="0, 0" pads_end="0, 0" dilations="1, 1" auto_pad="same_upper" />
			<input>
				<port id="0" precision="FP32">
					<dim>1</dim>
					<dim>64</dim>
					<dim>112</dim>
					<dim>112</dim>
				</port>
				<port id="1" precision="FP32">
					<dim>64</dim>
					<dim>1</dim>
					<dim>1</dim>
					<dim>3</dim>
					<dim>3</dim>
				</port>
			</input>
			<output>
				<port id="2" precision="FP32">
					<dim>1</dim>
					<dim>64</dim>
					<dim>56</dim>
					<dim>56</dim>
				</port>
			</output>
		</layer>
		<layer id="45" name="Transpose_1039_compressed" type="Const" version="opset1">
			<data element_type="f16" shape="1, 64, 1, 1" offset="6096" size="128" />
			<output>
				<port id="0" precision="FP16">
					<dim>1</dim>
					<dim>64</dim>
					<dim>1</dim>
					<dim>1</dim>
				</port>
			</output>
		</layer>
		<layer id="46" name="Transpose_1039" type="Convert" version="opset1">
			<data destination_type="f32" />
			<rt_info>
				<attribute name="decompression" version="0" />
			</rt_info>
			<input>
				<port id="0" precision="FP16">
					<dim>1</dim>
					<dim>64</dim>
					<dim>1</dim>
					<dim>1</dim>
				</port>
			</input>
			<output>
				<port id="1" precision="FP32">
					<dim>1</dim>
					<dim>64</dim>
					<dim>1</dim>
					<dim>1</dim>
				</port>
			</output>
		</layer>
		<layer id="47" name="Transpose_1041" type="Add" version="opset1">
			<data auto_broadcast="numpy" />
			<input>
				<port id="0" precision="FP32">
					<dim>1</dim>
					<dim>64</dim>
					<dim>56</dim>
					<dim>56</dim>
				</port>
				<port id="1" precision="FP32">
					<dim>1</dim>
					<dim>64</dim>
					<dim>1</dim>
					<dim>1</dim>
				</port>
			</input>
			<output>
				<port id="2" precision="FP32">
					<dim>1</dim>
					<dim>64</dim>
					<dim>56</dim>
					<dim>56</dim>
				</port>
			</output>
		</layer>
		<layer id="48" name="Transpose_1043" type="Clamp" version="opset1">
			<data min="0" max="6" />
			<input>
				<port id="0" precision="FP32">
					<dim>1</dim>
					<dim>64</dim>
					<dim>56</dim>
					<dim>56</dim>
				</port>
			</input>
			<output>
				<port id="1" precision="FP32">
					<dim>1</dim>
					<dim>64</dim>
					<dim>56</dim>
					<dim>56</dim>
				</port>
			</output>
		</layer>
		<layer id="49" name="Transpose_1601_compressed" type="Const" version="opset1">
			<data element_type="f16" shape="24, 64, 1, 1" offset="6224" size="3072" />
			<output>
				<port id="0" precision="FP16" names="model_1/model/conv2d_3/Conv2D_dequantize">
					<dim>24</dim>
					<dim>64</dim>
					<dim>1</dim>
					<dim>1</dim>
				</port>
			</output>
		</layer>
		<layer id="50" name="Transpose_1601" type="Convert" version="opset1">
			<data destination_type="f32" />
			<rt_info>
				<attribute name="decompression" version="0" />
			</rt_info>
			<input>
				<port id="0" precision="FP16">
					<dim>24</dim>
					<dim>64</dim>
					<dim>1</dim>
					<dim>1</dim>
				</port>
			</input>
			<output>
				<port id="1" precision="FP32">
					<dim>24</dim>
					<dim>64</dim>
					<dim>1</dim>
					<dim>1</dim>
				</port>
			</output>
		</layer>
		<layer id="51" name="Convolution_189" type="Convolution" version="opset1">
			<data strides="1, 1" dilations="1, 1" pads_begin="0, 0" pads_end="0, 0" auto_pad="same_upper" />
			<input>
				<port id="0" precision="FP32">
					<dim>1</dim>
					<dim>64</dim>
					<dim>56</dim>
					<dim>56</dim>
				</port>
				<port id="1" precision="FP32">
					<dim>24</dim>
					<dim>64</dim>
					<dim>1</dim>
					<dim>1</dim>
				</port>
			</input>
			<output>
				<port id="2" precision="FP32">
					<dim>1</dim>
					<dim>24</dim>
					<dim>56</dim>
					<dim>56</dim>
				</port>
			</output>
		</layer>
		<layer id="52" name="Transpose_1047_compressed" type="Const" version="opset1">
			<data element_type="f16" shape="1, 24, 1, 1" offset="9296" size="48" />
			<output>
				<port id="0" precision="FP16">
					<dim>1</dim>
					<dim>24</dim>
					<dim>1</dim>
					<dim>1</dim>
				</port>
			</output>
		</layer>
		<layer id="53" name="Transpose_1047" type="Convert" version="opset1">
			<data destination_type="f32" />
			<rt_info>
				<attribute name="decompression" version="0" />
			</rt_info>
			<input>
				<port id="0" precision="FP16">
					<dim>1</dim>
					<dim>24</dim>
					<dim>1</dim>
					<dim>1</dim>
				</port>
			</input>
			<output>
				<port id="1" precision="FP32">
					<dim>1</dim>
					<dim>24</dim>
					<dim>1</dim>
					<dim>1</dim>
				</port>
			</output>
		</layer>
		<layer id="54" name="Transpose_1049" type="Add" version="opset1">
			<data auto_broadcast="numpy" />
			<input>
				<port id="0" precision="FP32">
					<dim>1</dim>
					<dim>24</dim>
					<dim>56</dim>
					<dim>56</dim>
				</port>
				<port id="1" precision="FP32">
					<dim>1</dim>
					<dim>24</dim>
					<dim>1</dim>
					<dim>1</dim>
				</port>
			</input>
			<output>
				<port id="2" precision="FP32">
					<dim>1</dim>
					<dim>24</dim>
					<dim>56</dim>
					<dim>56</dim>
				</port>
			</output>
		</layer>
		<layer id="55" name="Transpose_1609_compressed" type="Const" version="opset1">
			<data element_type="f16" shape="144, 24, 1, 1" offset="9344" size="6912" />
			<output>
				<port id="0" precision="FP16" names="model_1/model/conv2d_4/Conv2D_dequantize">
					<dim>144</dim>
					<dim>24</dim>
					<dim>1</dim>
					<dim>1</dim>
				</port>
			</output>
		</layer>
		<layer id="56" name="Transpose_1609" type="Convert" version="opset1">
			<data destination_type="f32" />
			<rt_info>
				<attribute name="decompression" version="0" />
			</rt_info>
			<input>
				<port id="0" precision="FP16">
					<dim>144</dim>
					<dim>24</dim>
					<dim>1</dim>
					<dim>1</dim>
				</port>
			</input>
			<output>
				<port id="1" precision="FP32">
					<dim>144</dim>
					<dim>24</dim>
					<dim>1</dim>
					<dim>1</dim>
				</port>
			</output>
		</layer>
		<layer id="57" name="Convolution_201" type="Convolution" version="opset1">
			<data strides="1, 1" dilations="1, 1" pads_begin="0, 0" pads_end="0, 0" auto_pad="same_upper" />
			<input>
				<port id="0" precision="FP32">
					<dim>1</dim>
					<dim>24</dim>
					<dim>56</dim>
					<dim>56</dim>
				</port>
				<port id="1" precision="FP32">
					<dim>144</dim>
					<dim>24</dim>
					<dim>1</dim>
					<dim>1</dim>
				</port>
			</input>
			<output>
				<port id="2" precision="FP32">
					<dim>1</dim>
					<dim>144</dim>
					<dim>56</dim>
					<dim>56</dim>
				</port>
			</output>
		</layer>
		<layer id="58" name="Transpose_1053_compressed" type="Const" version="opset1">
			<data element_type="f16" shape="1, 144, 1, 1" offset="16256" size="288" />
			<output>
				<port id="0" precision="FP16">
					<dim>1</dim>
					<dim>144</dim>
					<dim>1</dim>
					<dim>1</dim>
				</port>
			</output>
		</layer>
		<layer id="59" name="Transpose_1053" type="Convert" version="opset1">
			<data destination_type="f32" />
			<rt_info>
				<attribute name="decompression" version="0" />
			</rt_info>
			<input>
				<port id="0" precision="FP16">
					<dim>1</dim>
					<dim>144</dim>
					<dim>1</dim>
					<dim>1</dim>
				</port>
			</input>
			<output>
				<port id="1" precision="FP32">
					<dim>1</dim>
					<dim>144</dim>
					<dim>1</dim>
					<dim>1</dim>
				</port>
			</output>
		</layer>
		<layer id="60" name="Transpose_1055" type="Add" version="opset1">
			<data auto_broadcast="numpy" />
			<input>
				<port id="0" precision="FP32">
					<dim>1</dim>
					<dim>144</dim>
					<dim>56</dim>
					<dim>56</dim>
				</port>
				<port id="1" precision="FP32">
					<dim>1</dim>
					<dim>144</dim>
					<dim>1</dim>
					<dim>1</dim>
				</port>
			</input>
			<output>
				<port id="2" precision="FP32">
					<dim>1</dim>
					<dim>144</dim>
					<dim>56</dim>
					<dim>56</dim>
				</port>
			</output>
		</layer>
		<layer id="61" name="Transpose_1057" type="Clamp" version="opset1">
			<data min="0" max="6" />
			<input>
				<port id="0" precision="FP32">
					<dim>1</dim>
					<dim>144</dim>
					<dim>56</dim>
					<dim>56</dim>
				</port>
			</input>
			<output>
				<port id="1" precision="FP32">
					<dim>1</dim>
					<dim>144</dim>
					<dim>56</dim>
					<dim>56</dim>
				</port>
			</output>
		</layer>
		<layer id="62" name="model_1/model/batch_normalization_7/FusedBatchNormV3;model_1/model/depthwise_conv2d_2/depthwise;model_1/model/depthwise_conv2d_3/depthwise" type="Const" version="opset1">
			<data element_type="f16" shape="1, 3, 3, 144" offset="16544" size="2592" />
			<output>
				<port id="0" precision="FP16" names="model_1/model/batch_normalization_7/FusedBatchNormV3;model_1/model/depthwise_conv2d_2/depthwise;model_1/model/depthwise_conv2d_3/depthwise">
					<dim>1</dim>
					<dim>3</dim>
					<dim>3</dim>
					<dim>144</dim>
				</port>
			</output>
		</layer>
		<layer id="63" name="21" type="Convert" version="opset1">
			<data destination_type="f32" />
			<rt_info>
				<attribute name="decompression" version="0" />
			</rt_info>
			<input>
				<port id="0" precision="FP16">
					<dim>1</dim>
					<dim>3</dim>
					<dim>3</dim>
					<dim>144</dim>
				</port>
			</input>
			<output>
				<port id="1" precision="FP32" names="model_1/model/batch_normalization_7/FusedBatchNormV3;model_1/model/depthwise_conv2d_2/depthwise;model_1/model/depthwise_conv2d_3/depthwise_dequantize">
					<dim>1</dim>
					<dim>3</dim>
					<dim>3</dim>
					<dim>144</dim>
				</port>
			</output>
		</layer>
		<layer id="64" name="Constant_3857" type="Const" version="opset1">
			<data element_type="i64" shape="4" offset="19136" size="32" />
			<rt_info>
				<attribute name="precise" version="0" />
			</rt_info>
			<output>
				<port id="0" precision="I64">
					<dim>4</dim>
				</port>
			</output>
		</layer>
		<layer id="65" name="Transpose_209" type="Reshape" version="opset1">
			<data special_zero="true" />
			<input>
				<port id="0" precision="FP32">
					<dim>1</dim>
					<dim>3</dim>
					<dim>3</dim>
					<dim>144</dim>
				</port>
				<port id="1" precision="I64">
					<dim>4</dim>
				</port>
			</input>
			<output>
				<port id="2" precision="FP32">
					<dim>3</dim>
					<dim>3</dim>
					<dim>144</dim>
					<dim>1</dim>
				</port>
			</output>
		</layer>
		<layer id="66" name="Constant_216" type="Const" version="opset1">
			<data element_type="i64" shape="1" offset="1840" size="8" />
			<output>
				<port id="0" precision="I64">
					<dim>1</dim>
				</port>
			</output>
		</layer>
		<layer id="67" name="Transpose_1060" type="Unsqueeze" version="opset1">
			<input>
				<port id="0" precision="FP32">
					<dim>3</dim>
					<dim>3</dim>
					<dim>144</dim>
					<dim>1</dim>
				</port>
				<port id="1" precision="I64">
					<dim>1</dim>
				</port>
			</input>
			<output>
				<port id="2" precision="FP32">
					<dim>3</dim>
					<dim>3</dim>
					<dim>144</dim>
					<dim>1</dim>
					<dim>1</dim>
				</port>
			</output>
		</layer>
		<layer id="68" name="Constant_1061" type="Const" version="opset1">
			<data element_type="i64" shape="5" offset="1848" size="40" />
			<output>
				<port id="0" precision="I64">
					<dim>5</dim>
				</port>
			</output>
		</layer>
		<layer id="69" name="Transpose_219" type="Transpose" version="opset1">
			<input>
				<port id="0" precision="FP32">
					<dim>3</dim>
					<dim>3</dim>
					<dim>144</dim>
					<dim>1</dim>
					<dim>1</dim>
				</port>
				<port id="1" precision="I64">
					<dim>5</dim>
				</port>
			</input>
			<output>
				<port id="2" precision="FP32">
					<dim>144</dim>
					<dim>1</dim>
					<dim>1</dim>
					<dim>3</dim>
					<dim>3</dim>
				</port>
			</output>
		</layer>
		<layer id="70" name="GroupConvolution_220" type="GroupConvolution" version="opset1">
			<data strides="1, 1" pads_begin="0, 0" pads_end="0, 0" dilations="1, 1" auto_pad="same_upper" />
			<input>
				<port id="0" precision="FP32">
					<dim>1</dim>
					<dim>144</dim>
					<dim>56</dim>
					<dim>56</dim>
				</port>
				<port id="1" precision="FP32">
					<dim>144</dim>
					<dim>1</dim>
					<dim>1</dim>
					<dim>3</dim>
					<dim>3</dim>
				</port>
			</input>
			<output>
				<port id="2" precision="FP32">
					<dim>1</dim>
					<dim>144</dim>
					<dim>56</dim>
					<dim>56</dim>
				</port>
			</output>
		</layer>
		<layer id="71" name="Transpose_1066_compressed" type="Const" version="opset1">
			<data element_type="f16" shape="1, 144, 1, 1" offset="19168" size="288" />
			<output>
				<port id="0" precision="FP16">
					<dim>1</dim>
					<dim>144</dim>
					<dim>1</dim>
					<dim>1</dim>
				</port>
			</output>
		</layer>
		<layer id="72" name="Transpose_1066" type="Convert" version="opset1">
			<data destination_type="f32" />
			<rt_info>
				<attribute name="decompression" version="0" />
			</rt_info>
			<input>
				<port id="0" precision="FP16">
					<dim>1</dim>
					<dim>144</dim>
					<dim>1</dim>
					<dim>1</dim>
				</port>
			</input>
			<output>
				<port id="1" precision="FP32">
					<dim>1</dim>
					<dim>144</dim>
					<dim>1</dim>
					<dim>1</dim>
				</port>
			</output>
		</layer>
		<layer id="73" name="Transpose_1068" type="Add" version="opset1">
			<data auto_broadcast="numpy" />
			<input>
				<port id="0" precision="FP32">
					<dim>1</dim>
					<dim>144</dim>
					<dim>56</dim>
					<dim>56</dim>
				</port>
				<port id="1" precision="FP32">
					<dim>1</dim>
					<dim>144</dim>
					<dim>1</dim>
					<dim>1</dim>
				</port>
			</input>
			<output>
				<port id="2" precision="FP32">
					<dim>1</dim>
					<dim>144</dim>
					<dim>56</dim>
					<dim>56</dim>
				</port>
			</output>
		</layer>
		<layer id="74" name="Transpose_1070" type="Clamp" version="opset1">
			<data min="0" max="6" />
			<input>
				<port id="0" precision="FP32">
					<dim>1</dim>
					<dim>144</dim>
					<dim>56</dim>
					<dim>56</dim>
				</port>
			</input>
			<output>
				<port id="1" precision="FP32">
					<dim>1</dim>
					<dim>144</dim>
					<dim>56</dim>
					<dim>56</dim>
				</port>
			</output>
		</layer>
		<layer id="75" name="Transpose_1623_compressed" type="Const" version="opset1">
			<data element_type="f16" shape="24, 144, 1, 1" offset="19456" size="6912" />
			<output>
				<port id="0" precision="FP16" names="model_1/model/conv2d_5/Conv2D_dequantize">
					<dim>24</dim>
					<dim>144</dim>
					<dim>1</dim>
					<dim>1</dim>
				</port>
			</output>
		</layer>
		<layer id="76" name="Transpose_1623" type="Convert" version="opset1">
			<data destination_type="f32" />
			<rt_info>
				<attribute name="decompression" version="0" />
			</rt_info>
			<input>
				<port id="0" precision="FP16">
					<dim>24</dim>
					<dim>144</dim>
					<dim>1</dim>
					<dim>1</dim>
				</port>
			</input>
			<output>
				<port id="1" precision="FP32">
					<dim>24</dim>
					<dim>144</dim>
					<dim>1</dim>
					<dim>1</dim>
				</port>
			</output>
		</layer>
		<layer id="77" name="Convolution_233" type="Convolution" version="opset1">
			<data strides="1, 1" dilations="1, 1" pads_begin="0, 0" pads_end="0, 0" auto_pad="same_upper" />
			<input>
				<port id="0" precision="FP32">
					<dim>1</dim>
					<dim>144</dim>
					<dim>56</dim>
					<dim>56</dim>
				</port>
				<port id="1" precision="FP32">
					<dim>24</dim>
					<dim>144</dim>
					<dim>1</dim>
					<dim>1</dim>
				</port>
			</input>
			<output>
				<port id="2" precision="FP32">
					<dim>1</dim>
					<dim>24</dim>
					<dim>56</dim>
					<dim>56</dim>
				</port>
			</output>
		</layer>
		<layer id="78" name="Transpose_1074_compressed" type="Const" version="opset1">
			<data element_type="f16" shape="1, 24, 1, 1" offset="26368" size="48" />
			<output>
				<port id="0" precision="FP16">
					<dim>1</dim>
					<dim>24</dim>
					<dim>1</dim>
					<dim>1</dim>
				</port>
			</output>
		</layer>
		<layer id="79" name="Transpose_1074" type="Convert" version="opset1">
			<data destination_type="f32" />
			<rt_info>
				<attribute name="decompression" version="0" />
			</rt_info>
			<input>
				<port id="0" precision="FP16">
					<dim>1</dim>
					<dim>24</dim>
					<dim>1</dim>
					<dim>1</dim>
				</port>
			</input>
			<output>
				<port id="1" precision="FP32">
					<dim>1</dim>
					<dim>24</dim>
					<dim>1</dim>
					<dim>1</dim>
				</port>
			</output>
		</layer>
		<layer id="80" name="Transpose_1076" type="Add" version="opset1">
			<data auto_broadcast="numpy" />
			<input>
				<port id="0" precision="FP32">
					<dim>1</dim>
					<dim>24</dim>
					<dim>56</dim>
					<dim>56</dim>
				</port>
				<port id="1" precision="FP32">
					<dim>1</dim>
					<dim>24</dim>
					<dim>1</dim>
					<dim>1</dim>
				</port>
			</input>
			<output>
				<port id="2" precision="FP32">
					<dim>1</dim>
					<dim>24</dim>
					<dim>56</dim>
					<dim>56</dim>
				</port>
			</output>
		</layer>
		<layer id="81" name="Transpose_1080" type="Add" version="opset1">
			<data auto_broadcast="numpy" />
			<input>
				<port id="0" precision="FP32">
					<dim>1</dim>
					<dim>24</dim>
					<dim>56</dim>
					<dim>56</dim>
				</port>
				<port id="1" precision="FP32">
					<dim>1</dim>
					<dim>24</dim>
					<dim>56</dim>
					<dim>56</dim>
				</port>
			</input>
			<output>
				<port id="2" precision="FP32">
					<dim>1</dim>
					<dim>24</dim>
					<dim>56</dim>
					<dim>56</dim>
				</port>
			</output>
		</layer>
		<layer id="82" name="Transpose_1631_compressed" type="Const" version="opset1">
			<data element_type="f16" shape="144, 24, 1, 1" offset="26416" size="6912" />
			<output>
				<port id="0" precision="FP16" names="model_1/model/conv2d_6/Conv2D_dequantize">
					<dim>144</dim>
					<dim>24</dim>
					<dim>1</dim>
					<dim>1</dim>
				</port>
			</output>
		</layer>
		<layer id="83" name="Transpose_1631" type="Convert" version="opset1">
			<data destination_type="f32" />
			<rt_info>
				<attribute name="decompression" version="0" />
			</rt_info>
			<input>
				<port id="0" precision="FP16">
					<dim>144</dim>
					<dim>24</dim>
					<dim>1</dim>
					<dim>1</dim>
				</port>
			</input>
			<output>
				<port id="1" precision="FP32">
					<dim>144</dim>
					<dim>24</dim>
					<dim>1</dim>
					<dim>1</dim>
				</port>
			</output>
		</layer>
		<layer id="84" name="Convolution_246" type="Convolution" version="opset1">
			<data strides="1, 1" dilations="1, 1" pads_begin="0, 0" pads_end="0, 0" auto_pad="same_upper" />
			<input>
				<port id="0" precision="FP32">
					<dim>1</dim>
					<dim>24</dim>
					<dim>56</dim>
					<dim>56</dim>
				</port>
				<port id="1" precision="FP32">
					<dim>144</dim>
					<dim>24</dim>
					<dim>1</dim>
					<dim>1</dim>
				</port>
			</input>
			<output>
				<port id="2" precision="FP32">
					<dim>1</dim>
					<dim>144</dim>
					<dim>56</dim>
					<dim>56</dim>
				</port>
			</output>
		</layer>
		<layer id="85" name="Transpose_1084_compressed" type="Const" version="opset1">
			<data element_type="f16" shape="1, 144, 1, 1" offset="33328" size="288" />
			<output>
				<port id="0" precision="FP16">
					<dim>1</dim>
					<dim>144</dim>
					<dim>1</dim>
					<dim>1</dim>
				</port>
			</output>
		</layer>
		<layer id="86" name="Transpose_1084" type="Convert" version="opset1">
			<data destination_type="f32" />
			<rt_info>
				<attribute name="decompression" version="0" />
			</rt_info>
			<input>
				<port id="0" precision="FP16">
					<dim>1</dim>
					<dim>144</dim>
					<dim>1</dim>
					<dim>1</dim>
				</port>
			</input>
			<output>
				<port id="1" precision="FP32">
					<dim>1</dim>
					<dim>144</dim>
					<dim>1</dim>
					<dim>1</dim>
				</port>
			</output>
		</layer>
		<layer id="87" name="Transpose_1086" type="Add" version="opset1">
			<data auto_broadcast="numpy" />
			<input>
				<port id="0" precision="FP32">
					<dim>1</dim>
					<dim>144</dim>
					<dim>56</dim>
					<dim>56</dim>
				</port>
				<port id="1" precision="FP32">
					<dim>1</dim>
					<dim>144</dim>
					<dim>1</dim>
					<dim>1</dim>
				</port>
			</input>
			<output>
				<port id="2" precision="FP32">
					<dim>1</dim>
					<dim>144</dim>
					<dim>56</dim>
					<dim>56</dim>
				</port>
			</output>
		</layer>
		<layer id="88" name="Transpose_1088" type="Clamp" version="opset1">
			<data min="0" max="6" />
			<input>
				<port id="0" precision="FP32">
					<dim>1</dim>
					<dim>144</dim>
					<dim>56</dim>
					<dim>56</dim>
				</port>
			</input>
			<output>
				<port id="1" precision="FP32">
					<dim>1</dim>
					<dim>144</dim>
					<dim>56</dim>
					<dim>56</dim>
				</port>
			</output>
		</layer>
		<layer id="89" name="model_1/model/batch_normalization_10/FusedBatchNormV3;model_1/model/depthwise_conv2d_3/depthwise" type="Const" version="opset1">
			<data element_type="f16" shape="1, 5, 5, 144" offset="33616" size="7200" />
			<output>
				<port id="0" precision="FP16" names="model_1/model/batch_normalization_10/FusedBatchNormV3;model_1/model/depthwise_conv2d_3/depthwise">
					<dim>1</dim>
					<dim>5</dim>
					<dim>5</dim>
					<dim>144</dim>
				</port>
			</output>
		</layer>
		<layer id="90" name="32" type="Convert" version="opset1">
			<data destination_type="f32" />
			<rt_info>
				<attribute name="decompression" version="0" />
			</rt_info>
			<input>
				<port id="0" precision="FP16">
					<dim>1</dim>
					<dim>5</dim>
					<dim>5</dim>
					<dim>144</dim>
				</port>
			</input>
			<output>
				<port id="1" precision="FP32" names="model_1/model/batch_normalization_10/FusedBatchNormV3;model_1/model/depthwise_conv2d_3/depthwise_dequantize">
					<dim>1</dim>
					<dim>5</dim>
					<dim>5</dim>
					<dim>144</dim>
				</port>
			</output>
		</layer>
		<layer id="91" name="Constant_3867" type="Const" version="opset1">
			<data element_type="i64" shape="4" offset="40816" size="32" />
			<rt_info>
				<attribute name="precise" version="0" />
			</rt_info>
			<output>
				<port id="0" precision="I64">
					<dim>4</dim>
				</port>
			</output>
		</layer>
		<layer id="92" name="Transpose_254" type="Reshape" version="opset1">
			<data special_zero="true" />
			<input>
				<port id="0" precision="FP32">
					<dim>1</dim>
					<dim>5</dim>
					<dim>5</dim>
					<dim>144</dim>
				</port>
				<port id="1" precision="I64">
					<dim>4</dim>
				</port>
			</input>
			<output>
				<port id="2" precision="FP32">
					<dim>5</dim>
					<dim>5</dim>
					<dim>144</dim>
					<dim>1</dim>
				</port>
			</output>
		</layer>
		<layer id="93" name="Constant_261" type="Const" version="opset1">
			<data element_type="i64" shape="1" offset="1840" size="8" />
			<output>
				<port id="0" precision="I64">
					<dim>1</dim>
				</port>
			</output>
		</layer>
		<layer id="94" name="Transpose_1091" type="Unsqueeze" version="opset1">
			<input>
				<port id="0" precision="FP32">
					<dim>5</dim>
					<dim>5</dim>
					<dim>144</dim>
					<dim>1</dim>
				</port>
				<port id="1" precision="I64">
					<dim>1</dim>
				</port>
			</input>
			<output>
				<port id="2" precision="FP32">
					<dim>5</dim>
					<dim>5</dim>
					<dim>144</dim>
					<dim>1</dim>
					<dim>1</dim>
				</port>
			</output>
		</layer>
		<layer id="95" name="Constant_1092" type="Const" version="opset1">
			<data element_type="i64" shape="5" offset="1848" size="40" />
			<output>
				<port id="0" precision="I64">
					<dim>5</dim>
				</port>
			</output>
		</layer>
		<layer id="96" name="Transpose_264" type="Transpose" version="opset1">
			<input>
				<port id="0" precision="FP32">
					<dim>5</dim>
					<dim>5</dim>
					<dim>144</dim>
					<dim>1</dim>
					<dim>1</dim>
				</port>
				<port id="1" precision="I64">
					<dim>5</dim>
				</port>
			</input>
			<output>
				<port id="2" precision="FP32">
					<dim>144</dim>
					<dim>1</dim>
					<dim>1</dim>
					<dim>5</dim>
					<dim>5</dim>
				</port>
			</output>
		</layer>
		<layer id="97" name="GroupConvolution_265" type="GroupConvolution" version="opset1">
			<data strides="2, 2" pads_begin="0, 0" pads_end="0, 0" dilations="1, 1" auto_pad="same_upper" />
			<input>
				<port id="0" precision="FP32">
					<dim>1</dim>
					<dim>144</dim>
					<dim>56</dim>
					<dim>56</dim>
				</port>
				<port id="1" precision="FP32">
					<dim>144</dim>
					<dim>1</dim>
					<dim>1</dim>
					<dim>5</dim>
					<dim>5</dim>
				</port>
			</input>
			<output>
				<port id="2" precision="FP32">
					<dim>1</dim>
					<dim>144</dim>
					<dim>28</dim>
					<dim>28</dim>
				</port>
			</output>
		</layer>
		<layer id="98" name="Transpose_1097_compressed" type="Const" version="opset1">
			<data element_type="f16" shape="1, 144, 1, 1" offset="40848" size="288" />
			<output>
				<port id="0" precision="FP16">
					<dim>1</dim>
					<dim>144</dim>
					<dim>1</dim>
					<dim>1</dim>
				</port>
			</output>
		</layer>
		<layer id="99" name="Transpose_1097" type="Convert" version="opset1">
			<data destination_type="f32" />
			<rt_info>
				<attribute name="decompression" version="0" />
			</rt_info>
			<input>
				<port id="0" precision="FP16">
					<dim>1</dim>
					<dim>144</dim>
					<dim>1</dim>
					<dim>1</dim>
				</port>
			</input>
			<output>
				<port id="1" precision="FP32">
					<dim>1</dim>
					<dim>144</dim>
					<dim>1</dim>
					<dim>1</dim>
				</port>
			</output>
		</layer>
		<layer id="100" name="Transpose_1099" type="Add" version="opset1">
			<data auto_broadcast="numpy" />
			<input>
				<port id="0" precision="FP32">
					<dim>1</dim>
					<dim>144</dim>
					<dim>28</dim>
					<dim>28</dim>
				</port>
				<port id="1" precision="FP32">
					<dim>1</dim>
					<dim>144</dim>
					<dim>1</dim>
					<dim>1</dim>
				</port>
			</input>
			<output>
				<port id="2" precision="FP32">
					<dim>1</dim>
					<dim>144</dim>
					<dim>28</dim>
					<dim>28</dim>
				</port>
			</output>
		</layer>
		<layer id="101" name="Transpose_1101" type="Clamp" version="opset1">
			<data min="0" max="6" />
			<input>
				<port id="0" precision="FP32">
					<dim>1</dim>
					<dim>144</dim>
					<dim>28</dim>
					<dim>28</dim>
				</port>
			</input>
			<output>
				<port id="1" precision="FP32">
					<dim>1</dim>
					<dim>144</dim>
					<dim>28</dim>
					<dim>28</dim>
				</port>
			</output>
		</layer>
		<layer id="102" name="Transpose_1645_compressed" type="Const" version="opset1">
			<data element_type="f16" shape="40, 144, 1, 1" offset="41136" size="11520" />
			<output>
				<port id="0" precision="FP16" names="model_1/model/conv2d_7/Conv2D_dequantize">
					<dim>40</dim>
					<dim>144</dim>
					<dim>1</dim>
					<dim>1</dim>
				</port>
			</output>
		</layer>
		<layer id="103" name="Transpose_1645" type="Convert" version="opset1">
			<data destination_type="f32" />
			<rt_info>
				<attribute name="decompression" version="0" />
			</rt_info>
			<input>
				<port id="0" precision="FP16">
					<dim>40</dim>
					<dim>144</dim>
					<dim>1</dim>
					<dim>1</dim>
				</port>
			</input>
			<output>
				<port id="1" precision="FP32">
					<dim>40</dim>
					<dim>144</dim>
					<dim>1</dim>
					<dim>1</dim>
				</port>
			</output>
		</layer>
		<layer id="104" name="Convolution_278" type="Convolution" version="opset1">
			<data strides="1, 1" dilations="1, 1" pads_begin="0, 0" pads_end="0, 0" auto_pad="same_upper" />
			<input>
				<port id="0" precision="FP32">
					<dim>1</dim>
					<dim>144</dim>
					<dim>28</dim>
					<dim>28</dim>
				</port>
				<port id="1" precision="FP32">
					<dim>40</dim>
					<dim>144</dim>
					<dim>1</dim>
					<dim>1</dim>
				</port>
			</input>
			<output>
				<port id="2" precision="FP32">
					<dim>1</dim>
					<dim>40</dim>
					<dim>28</dim>
					<dim>28</dim>
				</port>
			</output>
		</layer>
		<layer id="105" name="Transpose_1105_compressed" type="Const" version="opset1">
			<data element_type="f16" shape="1, 40, 1, 1" offset="52656" size="80" />
			<output>
				<port id="0" precision="FP16">
					<dim>1</dim>
					<dim>40</dim>
					<dim>1</dim>
					<dim>1</dim>
				</port>
			</output>
		</layer>
		<layer id="106" name="Transpose_1105" type="Convert" version="opset1">
			<data destination_type="f32" />
			<rt_info>
				<attribute name="decompression" version="0" />
			</rt_info>
			<input>
				<port id="0" precision="FP16">
					<dim>1</dim>
					<dim>40</dim>
					<dim>1</dim>
					<dim>1</dim>
				</port>
			</input>
			<output>
				<port id="1" precision="FP32">
					<dim>1</dim>
					<dim>40</dim>
					<dim>1</dim>
					<dim>1</dim>
				</port>
			</output>
		</layer>
		<layer id="107" name="Transpose_1107" type="Add" version="opset1">
			<data auto_broadcast="numpy" />
			<input>
				<port id="0" precision="FP32">
					<dim>1</dim>
					<dim>40</dim>
					<dim>28</dim>
					<dim>28</dim>
				</port>
				<port id="1" precision="FP32">
					<dim>1</dim>
					<dim>40</dim>
					<dim>1</dim>
					<dim>1</dim>
				</port>
			</input>
			<output>
				<port id="2" precision="FP32">
					<dim>1</dim>
					<dim>40</dim>
					<dim>28</dim>
					<dim>28</dim>
				</port>
			</output>
		</layer>
		<layer id="108" name="Transpose_1653_compressed" type="Const" version="opset1">
			<data element_type="f16" shape="240, 40, 1, 1" offset="52736" size="19200" />
			<output>
				<port id="0" precision="FP16" names="model_1/model/conv2d_8/Conv2D_dequantize">
					<dim>240</dim>
					<dim>40</dim>
					<dim>1</dim>
					<dim>1</dim>
				</port>
			</output>
		</layer>
		<layer id="109" name="Transpose_1653" type="Convert" version="opset1">
			<data destination_type="f32" />
			<rt_info>
				<attribute name="decompression" version="0" />
			</rt_info>
			<input>
				<port id="0" precision="FP16">
					<dim>240</dim>
					<dim>40</dim>
					<dim>1</dim>
					<dim>1</dim>
				</port>
			</input>
			<output>
				<port id="1" precision="FP32">
					<dim>240</dim>
					<dim>40</dim>
					<dim>1</dim>
					<dim>1</dim>
				</port>
			</output>
		</layer>
		<layer id="110" name="Convolution_290" type="Convolution" version="opset1">
			<data strides="1, 1" dilations="1, 1" pads_begin="0, 0" pads_end="0, 0" auto_pad="same_upper" />
			<input>
				<port id="0" precision="FP32">
					<dim>1</dim>
					<dim>40</dim>
					<dim>28</dim>
					<dim>28</dim>
				</port>
				<port id="1" precision="FP32">
					<dim>240</dim>
					<dim>40</dim>
					<dim>1</dim>
					<dim>1</dim>
				</port>
			</input>
			<output>
				<port id="2" precision="FP32">
					<dim>1</dim>
					<dim>240</dim>
					<dim>28</dim>
					<dim>28</dim>
				</port>
			</output>
		</layer>
		<layer id="111" name="Transpose_1111_compressed" type="Const" version="opset1">
			<data element_type="f16" shape="1, 240, 1, 1" offset="71936" size="480" />
			<output>
				<port id="0" precision="FP16">
					<dim>1</dim>
					<dim>240</dim>
					<dim>1</dim>
					<dim>1</dim>
				</port>
			</output>
		</layer>
		<layer id="112" name="Transpose_1111" type="Convert" version="opset1">
			<data destination_type="f32" />
			<rt_info>
				<attribute name="decompression" version="0" />
			</rt_info>
			<input>
				<port id="0" precision="FP16">
					<dim>1</dim>
					<dim>240</dim>
					<dim>1</dim>
					<dim>1</dim>
				</port>
			</input>
			<output>
				<port id="1" precision="FP32">
					<dim>1</dim>
					<dim>240</dim>
					<dim>1</dim>
					<dim>1</dim>
				</port>
			</output>
		</layer>
		<layer id="113" name="Transpose_1113" type="Add" version="opset1">
			<data auto_broadcast="numpy" />
			<input>
				<port id="0" precision="FP32">
					<dim>1</dim>
					<dim>240</dim>
					<dim>28</dim>
					<dim>28</dim>
				</port>
				<port id="1" precision="FP32">
					<dim>1</dim>
					<dim>240</dim>
					<dim>1</dim>
					<dim>1</dim>
				</port>
			</input>
			<output>
				<port id="2" precision="FP32">
					<dim>1</dim>
					<dim>240</dim>
					<dim>28</dim>
					<dim>28</dim>
				</port>
			</output>
		</layer>
		<layer id="114" name="Transpose_1115" type="Clamp" version="opset1">
			<data min="0" max="6" />
			<input>
				<port id="0" precision="FP32">
					<dim>1</dim>
					<dim>240</dim>
					<dim>28</dim>
					<dim>28</dim>
				</port>
			</input>
			<output>
				<port id="1" precision="FP32">
					<dim>1</dim>
					<dim>240</dim>
					<dim>28</dim>
					<dim>28</dim>
				</port>
			</output>
		</layer>
		<layer id="115" name="model_1/model/batch_normalization_13/FusedBatchNormV3;model_1/model/depthwise_conv2d_4/depthwise;model_1/model/depthwise_conv2d_5/depthwise" type="Const" version="opset1">
			<data element_type="f16" shape="1, 5, 5, 240" offset="72416" size="12000" />
			<output>
				<port id="0" precision="FP16" names="model_1/model/batch_normalization_13/FusedBatchNormV3;model_1/model/depthwise_conv2d_4/depthwise;model_1/model/depthwise_conv2d_5/depthwise">
					<dim>1</dim>
					<dim>5</dim>
					<dim>5</dim>
					<dim>240</dim>
				</port>
			</output>
		</layer>
		<layer id="116" name="40" type="Convert" version="opset1">
			<data destination_type="f32" />
			<rt_info>
				<attribute name="decompression" version="0" />
			</rt_info>
			<input>
				<port id="0" precision="FP16">
					<dim>1</dim>
					<dim>5</dim>
					<dim>5</dim>
					<dim>240</dim>
				</port>
			</input>
			<output>
				<port id="1" precision="FP32" names="model_1/model/batch_normalization_13/FusedBatchNormV3;model_1/model/depthwise_conv2d_4/depthwise;model_1/model/depthwise_conv2d_5/depthwise_dequantize">
					<dim>1</dim>
					<dim>5</dim>
					<dim>5</dim>
					<dim>240</dim>
				</port>
			</output>
		</layer>
		<layer id="117" name="Constant_3875" type="Const" version="opset1">
			<data element_type="i64" shape="4" offset="84416" size="32" />
			<rt_info>
				<attribute name="precise" version="0" />
			</rt_info>
			<output>
				<port id="0" precision="I64">
					<dim>4</dim>
				</port>
			</output>
		</layer>
		<layer id="118" name="Transpose_298" type="Reshape" version="opset1">
			<data special_zero="true" />
			<input>
				<port id="0" precision="FP32">
					<dim>1</dim>
					<dim>5</dim>
					<dim>5</dim>
					<dim>240</dim>
				</port>
				<port id="1" precision="I64">
					<dim>4</dim>
				</port>
			</input>
			<output>
				<port id="2" precision="FP32">
					<dim>5</dim>
					<dim>5</dim>
					<dim>240</dim>
					<dim>1</dim>
				</port>
			</output>
		</layer>
		<layer id="119" name="Constant_305" type="Const" version="opset1">
			<data element_type="i64" shape="1" offset="1840" size="8" />
			<output>
				<port id="0" precision="I64">
					<dim>1</dim>
				</port>
			</output>
		</layer>
		<layer id="120" name="Transpose_1118" type="Unsqueeze" version="opset1">
			<input>
				<port id="0" precision="FP32">
					<dim>5</dim>
					<dim>5</dim>
					<dim>240</dim>
					<dim>1</dim>
				</port>
				<port id="1" precision="I64">
					<dim>1</dim>
				</port>
			</input>
			<output>
				<port id="2" precision="FP32">
					<dim>5</dim>
					<dim>5</dim>
					<dim>240</dim>
					<dim>1</dim>
					<dim>1</dim>
				</port>
			</output>
		</layer>
		<layer id="121" name="Constant_1119" type="Const" version="opset1">
			<data element_type="i64" shape="5" offset="1848" size="40" />
			<output>
				<port id="0" precision="I64">
					<dim>5</dim>
				</port>
			</output>
		</layer>
		<layer id="122" name="Transpose_308" type="Transpose" version="opset1">
			<input>
				<port id="0" precision="FP32">
					<dim>5</dim>
					<dim>5</dim>
					<dim>240</dim>
					<dim>1</dim>
					<dim>1</dim>
				</port>
				<port id="1" precision="I64">
					<dim>5</dim>
				</port>
			</input>
			<output>
				<port id="2" precision="FP32">
					<dim>240</dim>
					<dim>1</dim>
					<dim>1</dim>
					<dim>5</dim>
					<dim>5</dim>
				</port>
			</output>
		</layer>
		<layer id="123" name="GroupConvolution_309" type="GroupConvolution" version="opset1">
			<data strides="1, 1" pads_begin="0, 0" pads_end="0, 0" dilations="1, 1" auto_pad="same_upper" />
			<input>
				<port id="0" precision="FP32">
					<dim>1</dim>
					<dim>240</dim>
					<dim>28</dim>
					<dim>28</dim>
				</port>
				<port id="1" precision="FP32">
					<dim>240</dim>
					<dim>1</dim>
					<dim>1</dim>
					<dim>5</dim>
					<dim>5</dim>
				</port>
			</input>
			<output>
				<port id="2" precision="FP32">
					<dim>1</dim>
					<dim>240</dim>
					<dim>28</dim>
					<dim>28</dim>
				</port>
			</output>
		</layer>
		<layer id="124" name="Transpose_1124_compressed" type="Const" version="opset1">
			<data element_type="f16" shape="1, 240, 1, 1" offset="84448" size="480" />
			<output>
				<port id="0" precision="FP16">
					<dim>1</dim>
					<dim>240</dim>
					<dim>1</dim>
					<dim>1</dim>
				</port>
			</output>
		</layer>
		<layer id="125" name="Transpose_1124" type="Convert" version="opset1">
			<data destination_type="f32" />
			<rt_info>
				<attribute name="decompression" version="0" />
			</rt_info>
			<input>
				<port id="0" precision="FP16">
					<dim>1</dim>
					<dim>240</dim>
					<dim>1</dim>
					<dim>1</dim>
				</port>
			</input>
			<output>
				<port id="1" precision="FP32">
					<dim>1</dim>
					<dim>240</dim>
					<dim>1</dim>
					<dim>1</dim>
				</port>
			</output>
		</layer>
		<layer id="126" name="Transpose_1126" type="Add" version="opset1">
			<data auto_broadcast="numpy" />
			<input>
				<port id="0" precision="FP32">
					<dim>1</dim>
					<dim>240</dim>
					<dim>28</dim>
					<dim>28</dim>
				</port>
				<port id="1" precision="FP32">
					<dim>1</dim>
					<dim>240</dim>
					<dim>1</dim>
					<dim>1</dim>
				</port>
			</input>
			<output>
				<port id="2" precision="FP32">
					<dim>1</dim>
					<dim>240</dim>
					<dim>28</dim>
					<dim>28</dim>
				</port>
			</output>
		</layer>
		<layer id="127" name="Transpose_1128" type="Clamp" version="opset1">
			<data min="0" max="6" />
			<input>
				<port id="0" precision="FP32">
					<dim>1</dim>
					<dim>240</dim>
					<dim>28</dim>
					<dim>28</dim>
				</port>
			</input>
			<output>
				<port id="1" precision="FP32">
					<dim>1</dim>
					<dim>240</dim>
					<dim>28</dim>
					<dim>28</dim>
				</port>
			</output>
		</layer>
		<layer id="128" name="Transpose_1667_compressed" type="Const" version="opset1">
			<data element_type="f16" shape="40, 240, 1, 1" offset="84928" size="19200" />
			<output>
				<port id="0" precision="FP16" names="model_1/model/conv2d_9/Conv2D_dequantize">
					<dim>40</dim>
					<dim>240</dim>
					<dim>1</dim>
					<dim>1</dim>
				</port>
			</output>
		</layer>
		<layer id="129" name="Transpose_1667" type="Convert" version="opset1">
			<data destination_type="f32" />
			<rt_info>
				<attribute name="decompression" version="0" />
			</rt_info>
			<input>
				<port id="0" precision="FP16">
					<dim>40</dim>
					<dim>240</dim>
					<dim>1</dim>
					<dim>1</dim>
				</port>
			</input>
			<output>
				<port id="1" precision="FP32">
					<dim>40</dim>
					<dim>240</dim>
					<dim>1</dim>
					<dim>1</dim>
				</port>
			</output>
		</layer>
		<layer id="130" name="Convolution_322" type="Convolution" version="opset1">
			<data strides="1, 1" dilations="1, 1" pads_begin="0, 0" pads_end="0, 0" auto_pad="same_upper" />
			<input>
				<port id="0" precision="FP32">
					<dim>1</dim>
					<dim>240</dim>
					<dim>28</dim>
					<dim>28</dim>
				</port>
				<port id="1" precision="FP32">
					<dim>40</dim>
					<dim>240</dim>
					<dim>1</dim>
					<dim>1</dim>
				</port>
			</input>
			<output>
				<port id="2" precision="FP32">
					<dim>1</dim>
					<dim>40</dim>
					<dim>28</dim>
					<dim>28</dim>
				</port>
			</output>
		</layer>
		<layer id="131" name="Transpose_1132_compressed" type="Const" version="opset1">
			<data element_type="f16" shape="1, 40, 1, 1" offset="104128" size="80" />
			<output>
				<port id="0" precision="FP16">
					<dim>1</dim>
					<dim>40</dim>
					<dim>1</dim>
					<dim>1</dim>
				</port>
			</output>
		</layer>
		<layer id="132" name="Transpose_1132" type="Convert" version="opset1">
			<data destination_type="f32" />
			<rt_info>
				<attribute name="decompression" version="0" />
			</rt_info>
			<input>
				<port id="0" precision="FP16">
					<dim>1</dim>
					<dim>40</dim>
					<dim>1</dim>
					<dim>1</dim>
				</port>
			</input>
			<output>
				<port id="1" precision="FP32">
					<dim>1</dim>
					<dim>40</dim>
					<dim>1</dim>
					<dim>1</dim>
				</port>
			</output>
		</layer>
		<layer id="133" name="Transpose_1134" type="Add" version="opset1">
			<data auto_broadcast="numpy" />
			<input>
				<port id="0" precision="FP32">
					<dim>1</dim>
					<dim>40</dim>
					<dim>28</dim>
					<dim>28</dim>
				</port>
				<port id="1" precision="FP32">
					<dim>1</dim>
					<dim>40</dim>
					<dim>1</dim>
					<dim>1</dim>
				</port>
			</input>
			<output>
				<port id="2" precision="FP32">
					<dim>1</dim>
					<dim>40</dim>
					<dim>28</dim>
					<dim>28</dim>
				</port>
			</output>
		</layer>
		<layer id="134" name="Transpose_1138" type="Add" version="opset1">
			<data auto_broadcast="numpy" />
			<input>
				<port id="0" precision="FP32">
					<dim>1</dim>
					<dim>40</dim>
					<dim>28</dim>
					<dim>28</dim>
				</port>
				<port id="1" precision="FP32">
					<dim>1</dim>
					<dim>40</dim>
					<dim>28</dim>
					<dim>28</dim>
				</port>
			</input>
			<output>
				<port id="2" precision="FP32">
					<dim>1</dim>
					<dim>40</dim>
					<dim>28</dim>
					<dim>28</dim>
				</port>
			</output>
		</layer>
		<layer id="135" name="Transpose_1675_compressed" type="Const" version="opset1">
			<data element_type="f16" shape="240, 40, 1, 1" offset="104208" size="19200" />
			<output>
				<port id="0" precision="FP16" names="model_1/model/conv2d_10/Conv2D_dequantize">
					<dim>240</dim>
					<dim>40</dim>
					<dim>1</dim>
					<dim>1</dim>
				</port>
			</output>
		</layer>
		<layer id="136" name="Transpose_1675" type="Convert" version="opset1">
			<data destination_type="f32" />
			<rt_info>
				<attribute name="decompression" version="0" />
			</rt_info>
			<input>
				<port id="0" precision="FP16">
					<dim>240</dim>
					<dim>40</dim>
					<dim>1</dim>
					<dim>1</dim>
				</port>
			</input>
			<output>
				<port id="1" precision="FP32">
					<dim>240</dim>
					<dim>40</dim>
					<dim>1</dim>
					<dim>1</dim>
				</port>
			</output>
		</layer>
		<layer id="137" name="Convolution_335" type="Convolution" version="opset1">
			<data strides="1, 1" dilations="1, 1" pads_begin="0, 0" pads_end="0, 0" auto_pad="same_upper" />
			<input>
				<port id="0" precision="FP32">
					<dim>1</dim>
					<dim>40</dim>
					<dim>28</dim>
					<dim>28</dim>
				</port>
				<port id="1" precision="FP32">
					<dim>240</dim>
					<dim>40</dim>
					<dim>1</dim>
					<dim>1</dim>
				</port>
			</input>
			<output>
				<port id="2" precision="FP32">
					<dim>1</dim>
					<dim>240</dim>
					<dim>28</dim>
					<dim>28</dim>
				</port>
			</output>
		</layer>
		<layer id="138" name="Transpose_1142_compressed" type="Const" version="opset1">
			<data element_type="f16" shape="1, 240, 1, 1" offset="123408" size="480" />
			<output>
				<port id="0" precision="FP16">
					<dim>1</dim>
					<dim>240</dim>
					<dim>1</dim>
					<dim>1</dim>
				</port>
			</output>
		</layer>
		<layer id="139" name="Transpose_1142" type="Convert" version="opset1">
			<data destination_type="f32" />
			<rt_info>
				<attribute name="decompression" version="0" />
			</rt_info>
			<input>
				<port id="0" precision="FP16">
					<dim>1</dim>
					<dim>240</dim>
					<dim>1</dim>
					<dim>1</dim>
				</port>
			</input>
			<output>
				<port id="1" precision="FP32">
					<dim>1</dim>
					<dim>240</dim>
					<dim>1</dim>
					<dim>1</dim>
				</port>
			</output>
		</layer>
		<layer id="140" name="Transpose_1144" type="Add" version="opset1">
			<data auto_broadcast="numpy" />
			<input>
				<port id="0" precision="FP32">
					<dim>1</dim>
					<dim>240</dim>
					<dim>28</dim>
					<dim>28</dim>
				</port>
				<port id="1" precision="FP32">
					<dim>1</dim>
					<dim>240</dim>
					<dim>1</dim>
					<dim>1</dim>
				</port>
			</input>
			<output>
				<port id="2" precision="FP32">
					<dim>1</dim>
					<dim>240</dim>
					<dim>28</dim>
					<dim>28</dim>
				</port>
			</output>
		</layer>
		<layer id="141" name="Transpose_1146" type="Clamp" version="opset1">
			<data min="0" max="6" />
			<input>
				<port id="0" precision="FP32">
					<dim>1</dim>
					<dim>240</dim>
					<dim>28</dim>
					<dim>28</dim>
				</port>
			</input>
			<output>
				<port id="1" precision="FP32">
					<dim>1</dim>
					<dim>240</dim>
					<dim>28</dim>
					<dim>28</dim>
				</port>
			</output>
		</layer>
		<layer id="142" name="model_1/model/batch_normalization_16/FusedBatchNormV3;model_1/model/depthwise_conv2d_5/depthwise" type="Const" version="opset1">
			<data element_type="f16" shape="1, 3, 3, 240" offset="123888" size="4320" />
			<output>
				<port id="0" precision="FP16" names="model_1/model/batch_normalization_16/FusedBatchNormV3;model_1/model/depthwise_conv2d_5/depthwise">
					<dim>1</dim>
					<dim>3</dim>
					<dim>3</dim>
					<dim>240</dim>
				</port>
			</output>
		</layer>
		<layer id="143" name="51" type="Convert" version="opset1">
			<data destination_type="f32" />
			<rt_info>
				<attribute name="decompression" version="0" />
			</rt_info>
			<input>
				<port id="0" precision="FP16">
					<dim>1</dim>
					<dim>3</dim>
					<dim>3</dim>
					<dim>240</dim>
				</port>
			</input>
			<output>
				<port id="1" precision="FP32" names="model_1/model/batch_normalization_16/FusedBatchNormV3;model_1/model/depthwise_conv2d_5/depthwise_dequantize">
					<dim>1</dim>
					<dim>3</dim>
					<dim>3</dim>
					<dim>240</dim>
				</port>
			</output>
		</layer>
		<layer id="144" name="Constant_3885" type="Const" version="opset1">
			<data element_type="i64" shape="4" offset="128208" size="32" />
			<rt_info>
				<attribute name="precise" version="0" />
			</rt_info>
			<output>
				<port id="0" precision="I64">
					<dim>4</dim>
				</port>
			</output>
		</layer>
		<layer id="145" name="Transpose_343" type="Reshape" version="opset1">
			<data special_zero="true" />
			<input>
				<port id="0" precision="FP32">
					<dim>1</dim>
					<dim>3</dim>
					<dim>3</dim>
					<dim>240</dim>
				</port>
				<port id="1" precision="I64">
					<dim>4</dim>
				</port>
			</input>
			<output>
				<port id="2" precision="FP32">
					<dim>3</dim>
					<dim>3</dim>
					<dim>240</dim>
					<dim>1</dim>
				</port>
			</output>
		</layer>
		<layer id="146" name="Constant_350" type="Const" version="opset1">
			<data element_type="i64" shape="1" offset="1840" size="8" />
			<output>
				<port id="0" precision="I64">
					<dim>1</dim>
				</port>
			</output>
		</layer>
		<layer id="147" name="Transpose_1149" type="Unsqueeze" version="opset1">
			<input>
				<port id="0" precision="FP32">
					<dim>3</dim>
					<dim>3</dim>
					<dim>240</dim>
					<dim>1</dim>
				</port>
				<port id="1" precision="I64">
					<dim>1</dim>
				</port>
			</input>
			<output>
				<port id="2" precision="FP32">
					<dim>3</dim>
					<dim>3</dim>
					<dim>240</dim>
					<dim>1</dim>
					<dim>1</dim>
				</port>
			</output>
		</layer>
		<layer id="148" name="Constant_1150" type="Const" version="opset1">
			<data element_type="i64" shape="5" offset="1848" size="40" />
			<output>
				<port id="0" precision="I64">
					<dim>5</dim>
				</port>
			</output>
		</layer>
		<layer id="149" name="Transpose_353" type="Transpose" version="opset1">
			<input>
				<port id="0" precision="FP32">
					<dim>3</dim>
					<dim>3</dim>
					<dim>240</dim>
					<dim>1</dim>
					<dim>1</dim>
				</port>
				<port id="1" precision="I64">
					<dim>5</dim>
				</port>
			</input>
			<output>
				<port id="2" precision="FP32">
					<dim>240</dim>
					<dim>1</dim>
					<dim>1</dim>
					<dim>3</dim>
					<dim>3</dim>
				</port>
			</output>
		</layer>
		<layer id="150" name="GroupConvolution_354" type="GroupConvolution" version="opset1">
			<data strides="2, 2" pads_begin="0, 0" pads_end="0, 0" dilations="1, 1" auto_pad="same_upper" />
			<input>
				<port id="0" precision="FP32">
					<dim>1</dim>
					<dim>240</dim>
					<dim>28</dim>
					<dim>28</dim>
				</port>
				<port id="1" precision="FP32">
					<dim>240</dim>
					<dim>1</dim>
					<dim>1</dim>
					<dim>3</dim>
					<dim>3</dim>
				</port>
			</input>
			<output>
				<port id="2" precision="FP32">
					<dim>1</dim>
					<dim>240</dim>
					<dim>14</dim>
					<dim>14</dim>
				</port>
			</output>
		</layer>
		<layer id="151" name="Transpose_1155_compressed" type="Const" version="opset1">
			<data element_type="f16" shape="1, 240, 1, 1" offset="128240" size="480" />
			<output>
				<port id="0" precision="FP16">
					<dim>1</dim>
					<dim>240</dim>
					<dim>1</dim>
					<dim>1</dim>
				</port>
			</output>
		</layer>
		<layer id="152" name="Transpose_1155" type="Convert" version="opset1">
			<data destination_type="f32" />
			<rt_info>
				<attribute name="decompression" version="0" />
			</rt_info>
			<input>
				<port id="0" precision="FP16">
					<dim>1</dim>
					<dim>240</dim>
					<dim>1</dim>
					<dim>1</dim>
				</port>
			</input>
			<output>
				<port id="1" precision="FP32">
					<dim>1</dim>
					<dim>240</dim>
					<dim>1</dim>
					<dim>1</dim>
				</port>
			</output>
		</layer>
		<layer id="153" name="Transpose_1157" type="Add" version="opset1">
			<data auto_broadcast="numpy" />
			<input>
				<port id="0" precision="FP32">
					<dim>1</dim>
					<dim>240</dim>
					<dim>14</dim>
					<dim>14</dim>
				</port>
				<port id="1" precision="FP32">
					<dim>1</dim>
					<dim>240</dim>
					<dim>1</dim>
					<dim>1</dim>
				</port>
			</input>
			<output>
				<port id="2" precision="FP32">
					<dim>1</dim>
					<dim>240</dim>
					<dim>14</dim>
					<dim>14</dim>
				</port>
			</output>
		</layer>
		<layer id="154" name="Transpose_1159" type="Clamp" version="opset1">
			<data min="0" max="6" />
			<input>
				<port id="0" precision="FP32">
					<dim>1</dim>
					<dim>240</dim>
					<dim>14</dim>
					<dim>14</dim>
				</port>
			</input>
			<output>
				<port id="1" precision="FP32">
					<dim>1</dim>
					<dim>240</dim>
					<dim>14</dim>
					<dim>14</dim>
				</port>
			</output>
		</layer>
		<layer id="155" name="Transpose_1689_compressed" type="Const" version="opset1">
			<data element_type="f16" shape="80, 240, 1, 1" offset="128720" size="38400" />
			<output>
				<port id="0" precision="FP16" names="model_1/model/conv2d_11/Conv2D_dequantize">
					<dim>80</dim>
					<dim>240</dim>
					<dim>1</dim>
					<dim>1</dim>
				</port>
			</output>
		</layer>
		<layer id="156" name="Transpose_1689" type="Convert" version="opset1">
			<data destination_type="f32" />
			<rt_info>
				<attribute name="decompression" version="0" />
			</rt_info>
			<input>
				<port id="0" precision="FP16">
					<dim>80</dim>
					<dim>240</dim>
					<dim>1</dim>
					<dim>1</dim>
				</port>
			</input>
			<output>
				<port id="1" precision="FP32">
					<dim>80</dim>
					<dim>240</dim>
					<dim>1</dim>
					<dim>1</dim>
				</port>
			</output>
		</layer>
		<layer id="157" name="Convolution_367" type="Convolution" version="opset1">
			<data strides="1, 1" dilations="1, 1" pads_begin="0, 0" pads_end="0, 0" auto_pad="same_upper" />
			<input>
				<port id="0" precision="FP32">
					<dim>1</dim>
					<dim>240</dim>
					<dim>14</dim>
					<dim>14</dim>
				</port>
				<port id="1" precision="FP32">
					<dim>80</dim>
					<dim>240</dim>
					<dim>1</dim>
					<dim>1</dim>
				</port>
			</input>
			<output>
				<port id="2" precision="FP32">
					<dim>1</dim>
					<dim>80</dim>
					<dim>14</dim>
					<dim>14</dim>
				</port>
			</output>
		</layer>
		<layer id="158" name="Transpose_1163_compressed" type="Const" version="opset1">
			<data element_type="f16" shape="1, 80, 1, 1" offset="167120" size="160" />
			<output>
				<port id="0" precision="FP16">
					<dim>1</dim>
					<dim>80</dim>
					<dim>1</dim>
					<dim>1</dim>
				</port>
			</output>
		</layer>
		<layer id="159" name="Transpose_1163" type="Convert" version="opset1">
			<data destination_type="f32" />
			<rt_info>
				<attribute name="decompression" version="0" />
			</rt_info>
			<input>
				<port id="0" precision="FP16">
					<dim>1</dim>
					<dim>80</dim>
					<dim>1</dim>
					<dim>1</dim>
				</port>
			</input>
			<output>
				<port id="1" precision="FP32">
					<dim>1</dim>
					<dim>80</dim>
					<dim>1</dim>
					<dim>1</dim>
				</port>
			</output>
		</layer>
		<layer id="160" name="Transpose_1165" type="Add" version="opset1">
			<data auto_broadcast="numpy" />
			<input>
				<port id="0" precision="FP32">
					<dim>1</dim>
					<dim>80</dim>
					<dim>14</dim>
					<dim>14</dim>
				</port>
				<port id="1" precision="FP32">
					<dim>1</dim>
					<dim>80</dim>
					<dim>1</dim>
					<dim>1</dim>
				</port>
			</input>
			<output>
				<port id="2" precision="FP32">
					<dim>1</dim>
					<dim>80</dim>
					<dim>14</dim>
					<dim>14</dim>
				</port>
			</output>
		</layer>
		<layer id="161" name="Transpose_1697_compressed" type="Const" version="opset1">
			<data element_type="f16" shape="480, 80, 1, 1" offset="167280" size="76800" />
			<output>
				<port id="0" precision="FP16" names="model_1/model/conv2d_12/Conv2D_dequantize">
					<dim>480</dim>
					<dim>80</dim>
					<dim>1</dim>
					<dim>1</dim>
				</port>
			</output>
		</layer>
		<layer id="162" name="Transpose_1697" type="Convert" version="opset1">
			<data destination_type="f32" />
			<rt_info>
				<attribute name="decompression" version="0" />
			</rt_info>
			<input>
				<port id="0" precision="FP16">
					<dim>480</dim>
					<dim>80</dim>
					<dim>1</dim>
					<dim>1</dim>
				</port>
			</input>
			<output>
				<port id="1" precision="FP32">
					<dim>480</dim>
					<dim>80</dim>
					<dim>1</dim>
					<dim>1</dim>
				</port>
			</output>
		</layer>
		<layer id="163" name="Convolution_379" type="Convolution" version="opset1">
			<data strides="1, 1" dilations="1, 1" pads_begin="0, 0" pads_end="0, 0" auto_pad="same_upper" />
			<input>
				<port id="0" precision="FP32">
					<dim>1</dim>
					<dim>80</dim>
					<dim>14</dim>
					<dim>14</dim>
				</port>
				<port id="1" precision="FP32">
					<dim>480</dim>
					<dim>80</dim>
					<dim>1</dim>
					<dim>1</dim>
				</port>
			</input>
			<output>
				<port id="2" precision="FP32">
					<dim>1</dim>
					<dim>480</dim>
					<dim>14</dim>
					<dim>14</dim>
				</port>
			</output>
		</layer>
		<layer id="164" name="Transpose_1169_compressed" type="Const" version="opset1">
			<data element_type="f16" shape="1, 480, 1, 1" offset="244080" size="960" />
			<output>
				<port id="0" precision="FP16">
					<dim>1</dim>
					<dim>480</dim>
					<dim>1</dim>
					<dim>1</dim>
				</port>
			</output>
		</layer>
		<layer id="165" name="Transpose_1169" type="Convert" version="opset1">
			<data destination_type="f32" />
			<rt_info>
				<attribute name="decompression" version="0" />
			</rt_info>
			<input>
				<port id="0" precision="FP16">
					<dim>1</dim>
					<dim>480</dim>
					<dim>1</dim>
					<dim>1</dim>
				</port>
			</input>
			<output>
				<port id="1" precision="FP32">
					<dim>1</dim>
					<dim>480</dim>
					<dim>1</dim>
					<dim>1</dim>
				</port>
			</output>
		</layer>
		<layer id="166" name="Transpose_1171" type="Add" version="opset1">
			<data auto_broadcast="numpy" />
			<input>
				<port id="0" precision="FP32">
					<dim>1</dim>
					<dim>480</dim>
					<dim>14</dim>
					<dim>14</dim>
				</port>
				<port id="1" precision="FP32">
					<dim>1</dim>
					<dim>480</dim>
					<dim>1</dim>
					<dim>1</dim>
				</port>
			</input>
			<output>
				<port id="2" precision="FP32">
					<dim>1</dim>
					<dim>480</dim>
					<dim>14</dim>
					<dim>14</dim>
				</port>
			</output>
		</layer>
		<layer id="167" name="Transpose_1173" type="Clamp" version="opset1">
			<data min="0" max="6" />
			<input>
				<port id="0" precision="FP32">
					<dim>1</dim>
					<dim>480</dim>
					<dim>14</dim>
					<dim>14</dim>
				</port>
			</input>
			<output>
				<port id="1" precision="FP32">
					<dim>1</dim>
					<dim>480</dim>
					<dim>14</dim>
					<dim>14</dim>
				</port>
			</output>
		</layer>
		<layer id="168" name="model_1/model/batch_normalization_19/FusedBatchNormV3;model_1/model/depthwise_conv2d_6/depthwise;model_1/model/depthwise_conv2d_8/depthwise" type="Const" version="opset1">
			<data element_type="f16" shape="1, 3, 3, 480" offset="245040" size="8640" />
			<output>
				<port id="0" precision="FP16" names="model_1/model/batch_normalization_19/FusedBatchNormV3;model_1/model/depthwise_conv2d_6/depthwise;model_1/model/depthwise_conv2d_8/depthwise">
					<dim>1</dim>
					<dim>3</dim>
					<dim>3</dim>
					<dim>480</dim>
				</port>
			</output>
		</layer>
		<layer id="169" name="59" type="Convert" version="opset1">
			<data destination_type="f32" />
			<rt_info>
				<attribute name="decompression" version="0" />
			</rt_info>
			<input>
				<port id="0" precision="FP16">
					<dim>1</dim>
					<dim>3</dim>
					<dim>3</dim>
					<dim>480</dim>
				</port>
			</input>
			<output>
				<port id="1" precision="FP32" names="model_1/model/batch_normalization_19/FusedBatchNormV3;model_1/model/depthwise_conv2d_6/depthwise;model_1/model/depthwise_conv2d_8/depthwise_dequantize">
					<dim>1</dim>
					<dim>3</dim>
					<dim>3</dim>
					<dim>480</dim>
				</port>
			</output>
		</layer>
		<layer id="170" name="Constant_3893" type="Const" version="opset1">
			<data element_type="i64" shape="4" offset="253680" size="32" />
			<rt_info>
				<attribute name="precise" version="0" />
			</rt_info>
			<output>
				<port id="0" precision="I64">
					<dim>4</dim>
				</port>
			</output>
		</layer>
		<layer id="171" name="Transpose_387" type="Reshape" version="opset1">
			<data special_zero="true" />
			<input>
				<port id="0" precision="FP32">
					<dim>1</dim>
					<dim>3</dim>
					<dim>3</dim>
					<dim>480</dim>
				</port>
				<port id="1" precision="I64">
					<dim>4</dim>
				</port>
			</input>
			<output>
				<port id="2" precision="FP32">
					<dim>3</dim>
					<dim>3</dim>
					<dim>480</dim>
					<dim>1</dim>
				</port>
			</output>
		</layer>
		<layer id="172" name="Constant_394" type="Const" version="opset1">
			<data element_type="i64" shape="1" offset="1840" size="8" />
			<output>
				<port id="0" precision="I64">
					<dim>1</dim>
				</port>
			</output>
		</layer>
		<layer id="173" name="Transpose_1176" type="Unsqueeze" version="opset1">
			<input>
				<port id="0" precision="FP32">
					<dim>3</dim>
					<dim>3</dim>
					<dim>480</dim>
					<dim>1</dim>
				</port>
				<port id="1" precision="I64">
					<dim>1</dim>
				</port>
			</input>
			<output>
				<port id="2" precision="FP32">
					<dim>3</dim>
					<dim>3</dim>
					<dim>480</dim>
					<dim>1</dim>
					<dim>1</dim>
				</port>
			</output>
		</layer>
		<layer id="174" name="Constant_1177" type="Const" version="opset1">
			<data element_type="i64" shape="5" offset="1848" size="40" />
			<output>
				<port id="0" precision="I64">
					<dim>5</dim>
				</port>
			</output>
		</layer>
		<layer id="175" name="Transpose_397" type="Transpose" version="opset1">
			<input>
				<port id="0" precision="FP32">
					<dim>3</dim>
					<dim>3</dim>
					<dim>480</dim>
					<dim>1</dim>
					<dim>1</dim>
				</port>
				<port id="1" precision="I64">
					<dim>5</dim>
				</port>
			</input>
			<output>
				<port id="2" precision="FP32">
					<dim>480</dim>
					<dim>1</dim>
					<dim>1</dim>
					<dim>3</dim>
					<dim>3</dim>
				</port>
			</output>
		</layer>
		<layer id="176" name="GroupConvolution_398" type="GroupConvolution" version="opset1">
			<data strides="1, 1" pads_begin="0, 0" pads_end="0, 0" dilations="1, 1" auto_pad="same_upper" />
			<input>
				<port id="0" precision="FP32">
					<dim>1</dim>
					<dim>480</dim>
					<dim>14</dim>
					<dim>14</dim>
				</port>
				<port id="1" precision="FP32">
					<dim>480</dim>
					<dim>1</dim>
					<dim>1</dim>
					<dim>3</dim>
					<dim>3</dim>
				</port>
			</input>
			<output>
				<port id="2" precision="FP32">
					<dim>1</dim>
					<dim>480</dim>
					<dim>14</dim>
					<dim>14</dim>
				</port>
			</output>
		</layer>
		<layer id="177" name="Transpose_1182_compressed" type="Const" version="opset1">
			<data element_type="f16" shape="1, 480, 1, 1" offset="253712" size="960" />
			<output>
				<port id="0" precision="FP16">
					<dim>1</dim>
					<dim>480</dim>
					<dim>1</dim>
					<dim>1</dim>
				</port>
			</output>
		</layer>
		<layer id="178" name="Transpose_1182" type="Convert" version="opset1">
			<data destination_type="f32" />
			<rt_info>
				<attribute name="decompression" version="0" />
			</rt_info>
			<input>
				<port id="0" precision="FP16">
					<dim>1</dim>
					<dim>480</dim>
					<dim>1</dim>
					<dim>1</dim>
				</port>
			</input>
			<output>
				<port id="1" precision="FP32">
					<dim>1</dim>
					<dim>480</dim>
					<dim>1</dim>
					<dim>1</dim>
				</port>
			</output>
		</layer>
		<layer id="179" name="Transpose_1184" type="Add" version="opset1">
			<data auto_broadcast="numpy" />
			<input>
				<port id="0" precision="FP32">
					<dim>1</dim>
					<dim>480</dim>
					<dim>14</dim>
					<dim>14</dim>
				</port>
				<port id="1" precision="FP32">
					<dim>1</dim>
					<dim>480</dim>
					<dim>1</dim>
					<dim>1</dim>
				</port>
			</input>
			<output>
				<port id="2" precision="FP32">
					<dim>1</dim>
					<dim>480</dim>
					<dim>14</dim>
					<dim>14</dim>
				</port>
			</output>
		</layer>
		<layer id="180" name="Transpose_1186" type="Clamp" version="opset1">
			<data min="0" max="6" />
			<input>
				<port id="0" precision="FP32">
					<dim>1</dim>
					<dim>480</dim>
					<dim>14</dim>
					<dim>14</dim>
				</port>
			</input>
			<output>
				<port id="1" precision="FP32">
					<dim>1</dim>
					<dim>480</dim>
					<dim>14</dim>
					<dim>14</dim>
				</port>
			</output>
		</layer>
		<layer id="181" name="Transpose_1711_compressed" type="Const" version="opset1">
			<data element_type="f16" shape="80, 480, 1, 1" offset="254672" size="76800" />
			<output>
				<port id="0" precision="FP16" names="model_1/model/conv2d_13/Conv2D_dequantize">
					<dim>80</dim>
					<dim>480</dim>
					<dim>1</dim>
					<dim>1</dim>
				</port>
			</output>
		</layer>
		<layer id="182" name="Transpose_1711" type="Convert" version="opset1">
			<data destination_type="f32" />
			<rt_info>
				<attribute name="decompression" version="0" />
			</rt_info>
			<input>
				<port id="0" precision="FP16">
					<dim>80</dim>
					<dim>480</dim>
					<dim>1</dim>
					<dim>1</dim>
				</port>
			</input>
			<output>
				<port id="1" precision="FP32">
					<dim>80</dim>
					<dim>480</dim>
					<dim>1</dim>
					<dim>1</dim>
				</port>
			</output>
		</layer>
		<layer id="183" name="Convolution_411" type="Convolution" version="opset1">
			<data strides="1, 1" dilations="1, 1" pads_begin="0, 0" pads_end="0, 0" auto_pad="same_upper" />
			<input>
				<port id="0" precision="FP32">
					<dim>1</dim>
					<dim>480</dim>
					<dim>14</dim>
					<dim>14</dim>
				</port>
				<port id="1" precision="FP32">
					<dim>80</dim>
					<dim>480</dim>
					<dim>1</dim>
					<dim>1</dim>
				</port>
			</input>
			<output>
				<port id="2" precision="FP32">
					<dim>1</dim>
					<dim>80</dim>
					<dim>14</dim>
					<dim>14</dim>
				</port>
			</output>
		</layer>
		<layer id="184" name="Transpose_1190_compressed" type="Const" version="opset1">
			<data element_type="f16" shape="1, 80, 1, 1" offset="331472" size="160" />
			<output>
				<port id="0" precision="FP16">
					<dim>1</dim>
					<dim>80</dim>
					<dim>1</dim>
					<dim>1</dim>
				</port>
			</output>
		</layer>
		<layer id="185" name="Transpose_1190" type="Convert" version="opset1">
			<data destination_type="f32" />
			<rt_info>
				<attribute name="decompression" version="0" />
			</rt_info>
			<input>
				<port id="0" precision="FP16">
					<dim>1</dim>
					<dim>80</dim>
					<dim>1</dim>
					<dim>1</dim>
				</port>
			</input>
			<output>
				<port id="1" precision="FP32">
					<dim>1</dim>
					<dim>80</dim>
					<dim>1</dim>
					<dim>1</dim>
				</port>
			</output>
		</layer>
		<layer id="186" name="Transpose_1192" type="Add" version="opset1">
			<data auto_broadcast="numpy" />
			<input>
				<port id="0" precision="FP32">
					<dim>1</dim>
					<dim>80</dim>
					<dim>14</dim>
					<dim>14</dim>
				</port>
				<port id="1" precision="FP32">
					<dim>1</dim>
					<dim>80</dim>
					<dim>1</dim>
					<dim>1</dim>
				</port>
			</input>
			<output>
				<port id="2" precision="FP32">
					<dim>1</dim>
					<dim>80</dim>
					<dim>14</dim>
					<dim>14</dim>
				</port>
			</output>
		</layer>
		<layer id="187" name="Transpose_1196" type="Add" version="opset1">
			<data auto_broadcast="numpy" />
			<input>
				<port id="0" precision="FP32">
					<dim>1</dim>
					<dim>80</dim>
					<dim>14</dim>
					<dim>14</dim>
				</port>
				<port id="1" precision="FP32">
					<dim>1</dim>
					<dim>80</dim>
					<dim>14</dim>
					<dim>14</dim>
				</port>
			</input>
			<output>
				<port id="2" precision="FP32">
					<dim>1</dim>
					<dim>80</dim>
					<dim>14</dim>
					<dim>14</dim>
				</port>
			</output>
		</layer>
		<layer id="188" name="Transpose_1719_compressed" type="Const" version="opset1">
			<data element_type="f16" shape="480, 80, 1, 1" offset="331632" size="76800" />
			<output>
				<port id="0" precision="FP16" names="model_1/model/conv2d_14/Conv2D_dequantize">
					<dim>480</dim>
					<dim>80</dim>
					<dim>1</dim>
					<dim>1</dim>
				</port>
			</output>
		</layer>
		<layer id="189" name="Transpose_1719" type="Convert" version="opset1">
			<data destination_type="f32" />
			<rt_info>
				<attribute name="decompression" version="0" />
			</rt_info>
			<input>
				<port id="0" precision="FP16">
					<dim>480</dim>
					<dim>80</dim>
					<dim>1</dim>
					<dim>1</dim>
				</port>
			</input>
			<output>
				<port id="1" precision="FP32">
					<dim>480</dim>
					<dim>80</dim>
					<dim>1</dim>
					<dim>1</dim>
				</port>
			</output>
		</layer>
		<layer id="190" name="Convolution_424" type="Convolution" version="opset1">
			<data strides="1, 1" dilations="1, 1" pads_begin="0, 0" pads_end="0, 0" auto_pad="same_upper" />
			<input>
				<port id="0" precision="FP32">
					<dim>1</dim>
					<dim>80</dim>
					<dim>14</dim>
					<dim>14</dim>
				</port>
				<port id="1" precision="FP32">
					<dim>480</dim>
					<dim>80</dim>
					<dim>1</dim>
					<dim>1</dim>
				</port>
			</input>
			<output>
				<port id="2" precision="FP32">
					<dim>1</dim>
					<dim>480</dim>
					<dim>14</dim>
					<dim>14</dim>
				</port>
			</output>
		</layer>
		<layer id="191" name="Transpose_1200_compressed" type="Const" version="opset1">
			<data element_type="f16" shape="1, 480, 1, 1" offset="408432" size="960" />
			<output>
				<port id="0" precision="FP16">
					<dim>1</dim>
					<dim>480</dim>
					<dim>1</dim>
					<dim>1</dim>
				</port>
			</output>
		</layer>
		<layer id="192" name="Transpose_1200" type="Convert" version="opset1">
			<data destination_type="f32" />
			<rt_info>
				<attribute name="decompression" version="0" />
			</rt_info>
			<input>
				<port id="0" precision="FP16">
					<dim>1</dim>
					<dim>480</dim>
					<dim>1</dim>
					<dim>1</dim>
				</port>
			</input>
			<output>
				<port id="1" precision="FP32">
					<dim>1</dim>
					<dim>480</dim>
					<dim>1</dim>
					<dim>1</dim>
				</port>
			</output>
		</layer>
		<layer id="193" name="Transpose_1202" type="Add" version="opset1">
			<data auto_broadcast="numpy" />
			<input>
				<port id="0" precision="FP32">
					<dim>1</dim>
					<dim>480</dim>
					<dim>14</dim>
					<dim>14</dim>
				</port>
				<port id="1" precision="FP32">
					<dim>1</dim>
					<dim>480</dim>
					<dim>1</dim>
					<dim>1</dim>
				</port>
			</input>
			<output>
				<port id="2" precision="FP32">
					<dim>1</dim>
					<dim>480</dim>
					<dim>14</dim>
					<dim>14</dim>
				</port>
			</output>
		</layer>
		<layer id="194" name="Transpose_1204" type="Clamp" version="opset1">
			<data min="0" max="6" />
			<input>
				<port id="0" precision="FP32">
					<dim>1</dim>
					<dim>480</dim>
					<dim>14</dim>
					<dim>14</dim>
				</port>
			</input>
			<output>
				<port id="1" precision="FP32">
					<dim>1</dim>
					<dim>480</dim>
					<dim>14</dim>
					<dim>14</dim>
				</port>
			</output>
		</layer>
		<layer id="195" name="model_1/model/batch_normalization_22/FusedBatchNormV3;model_1/model/depthwise_conv2d_7/depthwise;model_1/model/depthwise_conv2d_8/depthwise" type="Const" version="opset1">
			<data element_type="f16" shape="1, 3, 3, 480" offset="409392" size="8640" />
			<output>
				<port id="0" precision="FP16" names="model_1/model/batch_normalization_22/FusedBatchNormV3;model_1/model/depthwise_conv2d_7/depthwise;model_1/model/depthwise_conv2d_8/depthwise">
					<dim>1</dim>
					<dim>3</dim>
					<dim>3</dim>
					<dim>480</dim>
				</port>
			</output>
		</layer>
		<layer id="196" name="69" type="Convert" version="opset1">
			<data destination_type="f32" />
			<rt_info>
				<attribute name="decompression" version="0" />
			</rt_info>
			<input>
				<port id="0" precision="FP16">
					<dim>1</dim>
					<dim>3</dim>
					<dim>3</dim>
					<dim>480</dim>
				</port>
			</input>
			<output>
				<port id="1" precision="FP32" names="model_1/model/batch_normalization_22/FusedBatchNormV3;model_1/model/depthwise_conv2d_7/depthwise;model_1/model/depthwise_conv2d_8/depthwise_dequantize">
					<dim>1</dim>
					<dim>3</dim>
					<dim>3</dim>
					<dim>480</dim>
				</port>
			</output>
		</layer>
		<layer id="197" name="Constant_3903" type="Const" version="opset1">
			<data element_type="i64" shape="4" offset="253680" size="32" />
			<rt_info>
				<attribute name="precise" version="0" />
			</rt_info>
			<output>
				<port id="0" precision="I64">
					<dim>4</dim>
				</port>
			</output>
		</layer>
		<layer id="198" name="Transpose_432" type="Reshape" version="opset1">
			<data special_zero="true" />
			<input>
				<port id="0" precision="FP32">
					<dim>1</dim>
					<dim>3</dim>
					<dim>3</dim>
					<dim>480</dim>
				</port>
				<port id="1" precision="I64">
					<dim>4</dim>
				</port>
			</input>
			<output>
				<port id="2" precision="FP32">
					<dim>3</dim>
					<dim>3</dim>
					<dim>480</dim>
					<dim>1</dim>
				</port>
			</output>
		</layer>
		<layer id="199" name="Constant_439" type="Const" version="opset1">
			<data element_type="i64" shape="1" offset="1840" size="8" />
			<output>
				<port id="0" precision="I64">
					<dim>1</dim>
				</port>
			</output>
		</layer>
		<layer id="200" name="Transpose_1207" type="Unsqueeze" version="opset1">
			<input>
				<port id="0" precision="FP32">
					<dim>3</dim>
					<dim>3</dim>
					<dim>480</dim>
					<dim>1</dim>
				</port>
				<port id="1" precision="I64">
					<dim>1</dim>
				</port>
			</input>
			<output>
				<port id="2" precision="FP32">
					<dim>3</dim>
					<dim>3</dim>
					<dim>480</dim>
					<dim>1</dim>
					<dim>1</dim>
				</port>
			</output>
		</layer>
		<layer id="201" name="Constant_1208" type="Const" version="opset1">
			<data element_type="i64" shape="5" offset="1848" size="40" />
			<output>
				<port id="0" precision="I64">
					<dim>5</dim>
				</port>
			</output>
		</layer>
		<layer id="202" name="Transpose_442" type="Transpose" version="opset1">
			<input>
				<port id="0" precision="FP32">
					<dim>3</dim>
					<dim>3</dim>
					<dim>480</dim>
					<dim>1</dim>
					<dim>1</dim>
				</port>
				<port id="1" precision="I64">
					<dim>5</dim>
				</port>
			</input>
			<output>
				<port id="2" precision="FP32">
					<dim>480</dim>
					<dim>1</dim>
					<dim>1</dim>
					<dim>3</dim>
					<dim>3</dim>
				</port>
			</output>
		</layer>
		<layer id="203" name="GroupConvolution_443" type="GroupConvolution" version="opset1">
			<data strides="1, 1" pads_begin="0, 0" pads_end="0, 0" dilations="1, 1" auto_pad="same_upper" />
			<input>
				<port id="0" precision="FP32">
					<dim>1</dim>
					<dim>480</dim>
					<dim>14</dim>
					<dim>14</dim>
				</port>
				<port id="1" precision="FP32">
					<dim>480</dim>
					<dim>1</dim>
					<dim>1</dim>
					<dim>3</dim>
					<dim>3</dim>
				</port>
			</input>
			<output>
				<port id="2" precision="FP32">
					<dim>1</dim>
					<dim>480</dim>
					<dim>14</dim>
					<dim>14</dim>
				</port>
			</output>
		</layer>
		<layer id="204" name="Transpose_1213_compressed" type="Const" version="opset1">
			<data element_type="f16" shape="1, 480, 1, 1" offset="418032" size="960" />
			<output>
				<port id="0" precision="FP16">
					<dim>1</dim>
					<dim>480</dim>
					<dim>1</dim>
					<dim>1</dim>
				</port>
			</output>
		</layer>
		<layer id="205" name="Transpose_1213" type="Convert" version="opset1">
			<data destination_type="f32" />
			<rt_info>
				<attribute name="decompression" version="0" />
			</rt_info>
			<input>
				<port id="0" precision="FP16">
					<dim>1</dim>
					<dim>480</dim>
					<dim>1</dim>
					<dim>1</dim>
				</port>
			</input>
			<output>
				<port id="1" precision="FP32">
					<dim>1</dim>
					<dim>480</dim>
					<dim>1</dim>
					<dim>1</dim>
				</port>
			</output>
		</layer>
		<layer id="206" name="Transpose_1215" type="Add" version="opset1">
			<data auto_broadcast="numpy" />
			<input>
				<port id="0" precision="FP32">
					<dim>1</dim>
					<dim>480</dim>
					<dim>14</dim>
					<dim>14</dim>
				</port>
				<port id="1" precision="FP32">
					<dim>1</dim>
					<dim>480</dim>
					<dim>1</dim>
					<dim>1</dim>
				</port>
			</input>
			<output>
				<port id="2" precision="FP32">
					<dim>1</dim>
					<dim>480</dim>
					<dim>14</dim>
					<dim>14</dim>
				</port>
			</output>
		</layer>
		<layer id="207" name="Transpose_1217" type="Clamp" version="opset1">
			<data min="0" max="6" />
			<input>
				<port id="0" precision="FP32">
					<dim>1</dim>
					<dim>480</dim>
					<dim>14</dim>
					<dim>14</dim>
				</port>
			</input>
			<output>
				<port id="1" precision="FP32">
					<dim>1</dim>
					<dim>480</dim>
					<dim>14</dim>
					<dim>14</dim>
				</port>
			</output>
		</layer>
		<layer id="208" name="Transpose_1733_compressed" type="Const" version="opset1">
			<data element_type="f16" shape="80, 480, 1, 1" offset="418992" size="76800" />
			<output>
				<port id="0" precision="FP16" names="model_1/model/conv2d_15/Conv2D_dequantize">
					<dim>80</dim>
					<dim>480</dim>
					<dim>1</dim>
					<dim>1</dim>
				</port>
			</output>
		</layer>
		<layer id="209" name="Transpose_1733" type="Convert" version="opset1">
			<data destination_type="f32" />
			<rt_info>
				<attribute name="decompression" version="0" />
			</rt_info>
			<input>
				<port id="0" precision="FP16">
					<dim>80</dim>
					<dim>480</dim>
					<dim>1</dim>
					<dim>1</dim>
				</port>
			</input>
			<output>
				<port id="1" precision="FP32">
					<dim>80</dim>
					<dim>480</dim>
					<dim>1</dim>
					<dim>1</dim>
				</port>
			</output>
		</layer>
		<layer id="210" name="Convolution_456" type="Convolution" version="opset1">
			<data strides="1, 1" dilations="1, 1" pads_begin="0, 0" pads_end="0, 0" auto_pad="same_upper" />
			<input>
				<port id="0" precision="FP32">
					<dim>1</dim>
					<dim>480</dim>
					<dim>14</dim>
					<dim>14</dim>
				</port>
				<port id="1" precision="FP32">
					<dim>80</dim>
					<dim>480</dim>
					<dim>1</dim>
					<dim>1</dim>
				</port>
			</input>
			<output>
				<port id="2" precision="FP32">
					<dim>1</dim>
					<dim>80</dim>
					<dim>14</dim>
					<dim>14</dim>
				</port>
			</output>
		</layer>
		<layer id="211" name="Transpose_1221_compressed" type="Const" version="opset1">
			<data element_type="f16" shape="1, 80, 1, 1" offset="495792" size="160" />
			<output>
				<port id="0" precision="FP16">
					<dim>1</dim>
					<dim>80</dim>
					<dim>1</dim>
					<dim>1</dim>
				</port>
			</output>
		</layer>
		<layer id="212" name="Transpose_1221" type="Convert" version="opset1">
			<data destination_type="f32" />
			<rt_info>
				<attribute name="decompression" version="0" />
			</rt_info>
			<input>
				<port id="0" precision="FP16">
					<dim>1</dim>
					<dim>80</dim>
					<dim>1</dim>
					<dim>1</dim>
				</port>
			</input>
			<output>
				<port id="1" precision="FP32">
					<dim>1</dim>
					<dim>80</dim>
					<dim>1</dim>
					<dim>1</dim>
				</port>
			</output>
		</layer>
		<layer id="213" name="Transpose_1223" type="Add" version="opset1">
			<data auto_broadcast="numpy" />
			<input>
				<port id="0" precision="FP32">
					<dim>1</dim>
					<dim>80</dim>
					<dim>14</dim>
					<dim>14</dim>
				</port>
				<port id="1" precision="FP32">
					<dim>1</dim>
					<dim>80</dim>
					<dim>1</dim>
					<dim>1</dim>
				</port>
			</input>
			<output>
				<port id="2" precision="FP32">
					<dim>1</dim>
					<dim>80</dim>
					<dim>14</dim>
					<dim>14</dim>
				</port>
			</output>
		</layer>
		<layer id="214" name="Transpose_1227" type="Add" version="opset1">
			<data auto_broadcast="numpy" />
			<input>
				<port id="0" precision="FP32">
					<dim>1</dim>
					<dim>80</dim>
					<dim>14</dim>
					<dim>14</dim>
				</port>
				<port id="1" precision="FP32">
					<dim>1</dim>
					<dim>80</dim>
					<dim>14</dim>
					<dim>14</dim>
				</port>
			</input>
			<output>
				<port id="2" precision="FP32">
					<dim>1</dim>
					<dim>80</dim>
					<dim>14</dim>
					<dim>14</dim>
				</port>
			</output>
		</layer>
		<layer id="215" name="Transpose_1741_compressed" type="Const" version="opset1">
			<data element_type="f16" shape="480, 80, 1, 1" offset="495952" size="76800" />
			<output>
				<port id="0" precision="FP16" names="model_1/model/conv2d_16/Conv2D_dequantize">
					<dim>480</dim>
					<dim>80</dim>
					<dim>1</dim>
					<dim>1</dim>
				</port>
			</output>
		</layer>
		<layer id="216" name="Transpose_1741" type="Convert" version="opset1">
			<data destination_type="f32" />
			<rt_info>
				<attribute name="decompression" version="0" />
			</rt_info>
			<input>
				<port id="0" precision="FP16">
					<dim>480</dim>
					<dim>80</dim>
					<dim>1</dim>
					<dim>1</dim>
				</port>
			</input>
			<output>
				<port id="1" precision="FP32">
					<dim>480</dim>
					<dim>80</dim>
					<dim>1</dim>
					<dim>1</dim>
				</port>
			</output>
		</layer>
		<layer id="217" name="Convolution_469" type="Convolution" version="opset1">
			<data strides="1, 1" dilations="1, 1" pads_begin="0, 0" pads_end="0, 0" auto_pad="same_upper" />
			<input>
				<port id="0" precision="FP32">
					<dim>1</dim>
					<dim>80</dim>
					<dim>14</dim>
					<dim>14</dim>
				</port>
				<port id="1" precision="FP32">
					<dim>480</dim>
					<dim>80</dim>
					<dim>1</dim>
					<dim>1</dim>
				</port>
			</input>
			<output>
				<port id="2" precision="FP32">
					<dim>1</dim>
					<dim>480</dim>
					<dim>14</dim>
					<dim>14</dim>
				</port>
			</output>
		</layer>
		<layer id="218" name="Transpose_1231_compressed" type="Const" version="opset1">
			<data element_type="f16" shape="1, 480, 1, 1" offset="572752" size="960" />
			<output>
				<port id="0" precision="FP16">
					<dim>1</dim>
					<dim>480</dim>
					<dim>1</dim>
					<dim>1</dim>
				</port>
			</output>
		</layer>
		<layer id="219" name="Transpose_1231" type="Convert" version="opset1">
			<data destination_type="f32" />
			<rt_info>
				<attribute name="decompression" version="0" />
			</rt_info>
			<input>
				<port id="0" precision="FP16">
					<dim>1</dim>
					<dim>480</dim>
					<dim>1</dim>
					<dim>1</dim>
				</port>
			</input>
			<output>
				<port id="1" precision="FP32">
					<dim>1</dim>
					<dim>480</dim>
					<dim>1</dim>
					<dim>1</dim>
				</port>
			</output>
		</layer>
		<layer id="220" name="Transpose_1233" type="Add" version="opset1">
			<data auto_broadcast="numpy" />
			<input>
				<port id="0" precision="FP32">
					<dim>1</dim>
					<dim>480</dim>
					<dim>14</dim>
					<dim>14</dim>
				</port>
				<port id="1" precision="FP32">
					<dim>1</dim>
					<dim>480</dim>
					<dim>1</dim>
					<dim>1</dim>
				</port>
			</input>
			<output>
				<port id="2" precision="FP32">
					<dim>1</dim>
					<dim>480</dim>
					<dim>14</dim>
					<dim>14</dim>
				</port>
			</output>
		</layer>
		<layer id="221" name="Transpose_1235" type="Clamp" version="opset1">
			<data min="0" max="6" />
			<input>
				<port id="0" precision="FP32">
					<dim>1</dim>
					<dim>480</dim>
					<dim>14</dim>
					<dim>14</dim>
				</port>
			</input>
			<output>
				<port id="1" precision="FP32">
					<dim>1</dim>
					<dim>480</dim>
					<dim>14</dim>
					<dim>14</dim>
				</port>
			</output>
		</layer>
		<layer id="222" name="model_1/model/batch_normalization_25/FusedBatchNormV3;model_1/model/depthwise_conv2d_8/depthwise" type="Const" version="opset1">
			<data element_type="f16" shape="1, 5, 5, 480" offset="573712" size="24000" />
			<output>
				<port id="0" precision="FP16" names="model_1/model/batch_normalization_25/FusedBatchNormV3;model_1/model/depthwise_conv2d_8/depthwise">
					<dim>1</dim>
					<dim>5</dim>
					<dim>5</dim>
					<dim>480</dim>
				</port>
			</output>
		</layer>
		<layer id="223" name="79" type="Convert" version="opset1">
			<data destination_type="f32" />
			<rt_info>
				<attribute name="decompression" version="0" />
			</rt_info>
			<input>
				<port id="0" precision="FP16">
					<dim>1</dim>
					<dim>5</dim>
					<dim>5</dim>
					<dim>480</dim>
				</port>
			</input>
			<output>
				<port id="1" precision="FP32" names="model_1/model/batch_normalization_25/FusedBatchNormV3;model_1/model/depthwise_conv2d_8/depthwise_dequantize">
					<dim>1</dim>
					<dim>5</dim>
					<dim>5</dim>
					<dim>480</dim>
				</port>
			</output>
		</layer>
		<layer id="224" name="Constant_3913" type="Const" version="opset1">
			<data element_type="i64" shape="4" offset="597712" size="32" />
			<rt_info>
				<attribute name="precise" version="0" />
			</rt_info>
			<output>
				<port id="0" precision="I64">
					<dim>4</dim>
				</port>
			</output>
		</layer>
		<layer id="225" name="Transpose_477" type="Reshape" version="opset1">
			<data special_zero="true" />
			<input>
				<port id="0" precision="FP32">
					<dim>1</dim>
					<dim>5</dim>
					<dim>5</dim>
					<dim>480</dim>
				</port>
				<port id="1" precision="I64">
					<dim>4</dim>
				</port>
			</input>
			<output>
				<port id="2" precision="FP32">
					<dim>5</dim>
					<dim>5</dim>
					<dim>480</dim>
					<dim>1</dim>
				</port>
			</output>
		</layer>
		<layer id="226" name="Constant_484" type="Const" version="opset1">
			<data element_type="i64" shape="1" offset="1840" size="8" />
			<output>
				<port id="0" precision="I64">
					<dim>1</dim>
				</port>
			</output>
		</layer>
		<layer id="227" name="Transpose_1238" type="Unsqueeze" version="opset1">
			<input>
				<port id="0" precision="FP32">
					<dim>5</dim>
					<dim>5</dim>
					<dim>480</dim>
					<dim>1</dim>
				</port>
				<port id="1" precision="I64">
					<dim>1</dim>
				</port>
			</input>
			<output>
				<port id="2" precision="FP32">
					<dim>5</dim>
					<dim>5</dim>
					<dim>480</dim>
					<dim>1</dim>
					<dim>1</dim>
				</port>
			</output>
		</layer>
		<layer id="228" name="Constant_1239" type="Const" version="opset1">
			<data element_type="i64" shape="5" offset="1848" size="40" />
			<output>
				<port id="0" precision="I64">
					<dim>5</dim>
				</port>
			</output>
		</layer>
		<layer id="229" name="Transpose_487" type="Transpose" version="opset1">
			<input>
				<port id="0" precision="FP32">
					<dim>5</dim>
					<dim>5</dim>
					<dim>480</dim>
					<dim>1</dim>
					<dim>1</dim>
				</port>
				<port id="1" precision="I64">
					<dim>5</dim>
				</port>
			</input>
			<output>
				<port id="2" precision="FP32">
					<dim>480</dim>
					<dim>1</dim>
					<dim>1</dim>
					<dim>5</dim>
					<dim>5</dim>
				</port>
			</output>
		</layer>
		<layer id="230" name="GroupConvolution_488" type="GroupConvolution" version="opset1">
			<data strides="1, 1" pads_begin="0, 0" pads_end="0, 0" dilations="1, 1" auto_pad="same_upper" />
			<input>
				<port id="0" precision="FP32">
					<dim>1</dim>
					<dim>480</dim>
					<dim>14</dim>
					<dim>14</dim>
				</port>
				<port id="1" precision="FP32">
					<dim>480</dim>
					<dim>1</dim>
					<dim>1</dim>
					<dim>5</dim>
					<dim>5</dim>
				</port>
			</input>
			<output>
				<port id="2" precision="FP32">
					<dim>1</dim>
					<dim>480</dim>
					<dim>14</dim>
					<dim>14</dim>
				</port>
			</output>
		</layer>
		<layer id="231" name="Transpose_1244_compressed" type="Const" version="opset1">
			<data element_type="f16" shape="1, 480, 1, 1" offset="597744" size="960" />
			<output>
				<port id="0" precision="FP16">
					<dim>1</dim>
					<dim>480</dim>
					<dim>1</dim>
					<dim>1</dim>
				</port>
			</output>
		</layer>
		<layer id="232" name="Transpose_1244" type="Convert" version="opset1">
			<data destination_type="f32" />
			<rt_info>
				<attribute name="decompression" version="0" />
			</rt_info>
			<input>
				<port id="0" precision="FP16">
					<dim>1</dim>
					<dim>480</dim>
					<dim>1</dim>
					<dim>1</dim>
				</port>
			</input>
			<output>
				<port id="1" precision="FP32">
					<dim>1</dim>
					<dim>480</dim>
					<dim>1</dim>
					<dim>1</dim>
				</port>
			</output>
		</layer>
		<layer id="233" name="Transpose_1246" type="Add" version="opset1">
			<data auto_broadcast="numpy" />
			<input>
				<port id="0" precision="FP32">
					<dim>1</dim>
					<dim>480</dim>
					<dim>14</dim>
					<dim>14</dim>
				</port>
				<port id="1" precision="FP32">
					<dim>1</dim>
					<dim>480</dim>
					<dim>1</dim>
					<dim>1</dim>
				</port>
			</input>
			<output>
				<port id="2" precision="FP32">
					<dim>1</dim>
					<dim>480</dim>
					<dim>14</dim>
					<dim>14</dim>
				</port>
			</output>
		</layer>
		<layer id="234" name="Transpose_1248" type="Clamp" version="opset1">
			<data min="0" max="6" />
			<input>
				<port id="0" precision="FP32">
					<dim>1</dim>
					<dim>480</dim>
					<dim>14</dim>
					<dim>14</dim>
				</port>
			</input>
			<output>
				<port id="1" precision="FP32">
					<dim>1</dim>
					<dim>480</dim>
					<dim>14</dim>
					<dim>14</dim>
				</port>
			</output>
		</layer>
		<layer id="235" name="Transpose_1755_compressed" type="Const" version="opset1">
			<data element_type="f16" shape="112, 480, 1, 1" offset="598704" size="107520" />
			<output>
				<port id="0" precision="FP16" names="model_1/model/conv2d_17/Conv2D_dequantize">
					<dim>112</dim>
					<dim>480</dim>
					<dim>1</dim>
					<dim>1</dim>
				</port>
			</output>
		</layer>
		<layer id="236" name="Transpose_1755" type="Convert" version="opset1">
			<data destination_type="f32" />
			<rt_info>
				<attribute name="decompression" version="0" />
			</rt_info>
			<input>
				<port id="0" precision="FP16">
					<dim>112</dim>
					<dim>480</dim>
					<dim>1</dim>
					<dim>1</dim>
				</port>
			</input>
			<output>
				<port id="1" precision="FP32">
					<dim>112</dim>
					<dim>480</dim>
					<dim>1</dim>
					<dim>1</dim>
				</port>
			</output>
		</layer>
		<layer id="237" name="Convolution_501" type="Convolution" version="opset1">
			<data strides="1, 1" dilations="1, 1" pads_begin="0, 0" pads_end="0, 0" auto_pad="same_upper" />
			<input>
				<port id="0" precision="FP32">
					<dim>1</dim>
					<dim>480</dim>
					<dim>14</dim>
					<dim>14</dim>
				</port>
				<port id="1" precision="FP32">
					<dim>112</dim>
					<dim>480</dim>
					<dim>1</dim>
					<dim>1</dim>
				</port>
			</input>
			<output>
				<port id="2" precision="FP32">
					<dim>1</dim>
					<dim>112</dim>
					<dim>14</dim>
					<dim>14</dim>
				</port>
			</output>
		</layer>
		<layer id="238" name="Transpose_1252_compressed" type="Const" version="opset1">
			<data element_type="f16" shape="1, 112, 1, 1" offset="706224" size="224" />
			<output>
				<port id="0" precision="FP16">
					<dim>1</dim>
					<dim>112</dim>
					<dim>1</dim>
					<dim>1</dim>
				</port>
			</output>
		</layer>
		<layer id="239" name="Transpose_1252" type="Convert" version="opset1">
			<data destination_type="f32" />
			<rt_info>
				<attribute name="decompression" version="0" />
			</rt_info>
			<input>
				<port id="0" precision="FP16">
					<dim>1</dim>
					<dim>112</dim>
					<dim>1</dim>
					<dim>1</dim>
				</port>
			</input>
			<output>
				<port id="1" precision="FP32">
					<dim>1</dim>
					<dim>112</dim>
					<dim>1</dim>
					<dim>1</dim>
				</port>
			</output>
		</layer>
		<layer id="240" name="Transpose_1254" type="Add" version="opset1">
			<data auto_broadcast="numpy" />
			<input>
				<port id="0" precision="FP32">
					<dim>1</dim>
					<dim>112</dim>
					<dim>14</dim>
					<dim>14</dim>
				</port>
				<port id="1" precision="FP32">
					<dim>1</dim>
					<dim>112</dim>
					<dim>1</dim>
					<dim>1</dim>
				</port>
			</input>
			<output>
				<port id="2" precision="FP32">
					<dim>1</dim>
					<dim>112</dim>
					<dim>14</dim>
					<dim>14</dim>
				</port>
			</output>
		</layer>
		<layer id="241" name="Transpose_1763_compressed" type="Const" version="opset1">
			<data element_type="f16" shape="672, 112, 1, 1" offset="706448" size="150528" />
			<output>
				<port id="0" precision="FP16" names="model_1/model/conv2d_18/Conv2D_dequantize">
					<dim>672</dim>
					<dim>112</dim>
					<dim>1</dim>
					<dim>1</dim>
				</port>
			</output>
		</layer>
		<layer id="242" name="Transpose_1763" type="Convert" version="opset1">
			<data destination_type="f32" />
			<rt_info>
				<attribute name="decompression" version="0" />
			</rt_info>
			<input>
				<port id="0" precision="FP16">
					<dim>672</dim>
					<dim>112</dim>
					<dim>1</dim>
					<dim>1</dim>
				</port>
			</input>
			<output>
				<port id="1" precision="FP32">
					<dim>672</dim>
					<dim>112</dim>
					<dim>1</dim>
					<dim>1</dim>
				</port>
			</output>
		</layer>
		<layer id="243" name="Convolution_513" type="Convolution" version="opset1">
			<data strides="1, 1" dilations="1, 1" pads_begin="0, 0" pads_end="0, 0" auto_pad="same_upper" />
			<input>
				<port id="0" precision="FP32">
					<dim>1</dim>
					<dim>112</dim>
					<dim>14</dim>
					<dim>14</dim>
				</port>
				<port id="1" precision="FP32">
					<dim>672</dim>
					<dim>112</dim>
					<dim>1</dim>
					<dim>1</dim>
				</port>
			</input>
			<output>
				<port id="2" precision="FP32">
					<dim>1</dim>
					<dim>672</dim>
					<dim>14</dim>
					<dim>14</dim>
				</port>
			</output>
		</layer>
		<layer id="244" name="Transpose_1258_compressed" type="Const" version="opset1">
			<data element_type="f16" shape="1, 672, 1, 1" offset="856976" size="1344" />
			<output>
				<port id="0" precision="FP16">
					<dim>1</dim>
					<dim>672</dim>
					<dim>1</dim>
					<dim>1</dim>
				</port>
			</output>
		</layer>
		<layer id="245" name="Transpose_1258" type="Convert" version="opset1">
			<data destination_type="f32" />
			<rt_info>
				<attribute name="decompression" version="0" />
			</rt_info>
			<input>
				<port id="0" precision="FP16">
					<dim>1</dim>
					<dim>672</dim>
					<dim>1</dim>
					<dim>1</dim>
				</port>
			</input>
			<output>
				<port id="1" precision="FP32">
					<dim>1</dim>
					<dim>672</dim>
					<dim>1</dim>
					<dim>1</dim>
				</port>
			</output>
		</layer>
		<layer id="246" name="Transpose_1260" type="Add" version="opset1">
			<data auto_broadcast="numpy" />
			<input>
				<port id="0" precision="FP32">
					<dim>1</dim>
					<dim>672</dim>
					<dim>14</dim>
					<dim>14</dim>
				</port>
				<port id="1" precision="FP32">
					<dim>1</dim>
					<dim>672</dim>
					<dim>1</dim>
					<dim>1</dim>
				</port>
			</input>
			<output>
				<port id="2" precision="FP32">
					<dim>1</dim>
					<dim>672</dim>
					<dim>14</dim>
					<dim>14</dim>
				</port>
			</output>
		</layer>
		<layer id="247" name="Transpose_1262" type="Clamp" version="opset1">
			<data min="0" max="6" />
			<input>
				<port id="0" precision="FP32">
					<dim>1</dim>
					<dim>672</dim>
					<dim>14</dim>
					<dim>14</dim>
				</port>
			</input>
			<output>
				<port id="1" precision="FP32">
					<dim>1</dim>
					<dim>672</dim>
					<dim>14</dim>
					<dim>14</dim>
				</port>
			</output>
		</layer>
		<layer id="248" name="model_1/model/batch_normalization_28/FusedBatchNormV3;model_1/model/depthwise_conv2d_9/depthwise;model_1/model/depthwise_conv2d_11/depthwise" type="Const" version="opset1">
			<data element_type="f16" shape="1, 5, 5, 672" offset="858320" size="33600" />
			<output>
				<port id="0" precision="FP16" names="model_1/model/batch_normalization_28/FusedBatchNormV3;model_1/model/depthwise_conv2d_9/depthwise;model_1/model/depthwise_conv2d_11/depthwise">
					<dim>1</dim>
					<dim>5</dim>
					<dim>5</dim>
					<dim>672</dim>
				</port>
			</output>
		</layer>
		<layer id="249" name="88" type="Convert" version="opset1">
			<data destination_type="f32" />
			<rt_info>
				<attribute name="decompression" version="0" />
			</rt_info>
			<input>
				<port id="0" precision="FP16">
					<dim>1</dim>
					<dim>5</dim>
					<dim>5</dim>
					<dim>672</dim>
				</port>
			</input>
			<output>
				<port id="1" precision="FP32" names="model_1/model/batch_normalization_28/FusedBatchNormV3;model_1/model/depthwise_conv2d_9/depthwise;model_1/model/depthwise_conv2d_11/depthwise_dequantize">
					<dim>1</dim>
					<dim>5</dim>
					<dim>5</dim>
					<dim>672</dim>
				</port>
			</output>
		</layer>
		<layer id="250" name="Constant_3921" type="Const" version="opset1">
			<data element_type="i64" shape="4" offset="891920" size="32" />
			<rt_info>
				<attribute name="precise" version="0" />
			</rt_info>
			<output>
				<port id="0" precision="I64">
					<dim>4</dim>
				</port>
			</output>
		</layer>
		<layer id="251" name="Transpose_521" type="Reshape" version="opset1">
			<data special_zero="true" />
			<input>
				<port id="0" precision="FP32">
					<dim>1</dim>
					<dim>5</dim>
					<dim>5</dim>
					<dim>672</dim>
				</port>
				<port id="1" precision="I64">
					<dim>4</dim>
				</port>
			</input>
			<output>
				<port id="2" precision="FP32">
					<dim>5</dim>
					<dim>5</dim>
					<dim>672</dim>
					<dim>1</dim>
				</port>
			</output>
		</layer>
		<layer id="252" name="Constant_528" type="Const" version="opset1">
			<data element_type="i64" shape="1" offset="1840" size="8" />
			<output>
				<port id="0" precision="I64">
					<dim>1</dim>
				</port>
			</output>
		</layer>
		<layer id="253" name="Transpose_1265" type="Unsqueeze" version="opset1">
			<input>
				<port id="0" precision="FP32">
					<dim>5</dim>
					<dim>5</dim>
					<dim>672</dim>
					<dim>1</dim>
				</port>
				<port id="1" precision="I64">
					<dim>1</dim>
				</port>
			</input>
			<output>
				<port id="2" precision="FP32">
					<dim>5</dim>
					<dim>5</dim>
					<dim>672</dim>
					<dim>1</dim>
					<dim>1</dim>
				</port>
			</output>
		</layer>
		<layer id="254" name="Constant_1266" type="Const" version="opset1">
			<data element_type="i64" shape="5" offset="1848" size="40" />
			<output>
				<port id="0" precision="I64">
					<dim>5</dim>
				</port>
			</output>
		</layer>
		<layer id="255" name="Transpose_531" type="Transpose" version="opset1">
			<input>
				<port id="0" precision="FP32">
					<dim>5</dim>
					<dim>5</dim>
					<dim>672</dim>
					<dim>1</dim>
					<dim>1</dim>
				</port>
				<port id="1" precision="I64">
					<dim>5</dim>
				</port>
			</input>
			<output>
				<port id="2" precision="FP32">
					<dim>672</dim>
					<dim>1</dim>
					<dim>1</dim>
					<dim>5</dim>
					<dim>5</dim>
				</port>
			</output>
		</layer>
		<layer id="256" name="GroupConvolution_532" type="GroupConvolution" version="opset1">
			<data strides="1, 1" pads_begin="0, 0" pads_end="0, 0" dilations="1, 1" auto_pad="same_upper" />
			<input>
				<port id="0" precision="FP32">
					<dim>1</dim>
					<dim>672</dim>
					<dim>14</dim>
					<dim>14</dim>
				</port>
				<port id="1" precision="FP32">
					<dim>672</dim>
					<dim>1</dim>
					<dim>1</dim>
					<dim>5</dim>
					<dim>5</dim>
				</port>
			</input>
			<output>
				<port id="2" precision="FP32">
					<dim>1</dim>
					<dim>672</dim>
					<dim>14</dim>
					<dim>14</dim>
				</port>
			</output>
		</layer>
		<layer id="257" name="Transpose_1271_compressed" type="Const" version="opset1">
			<data element_type="f16" shape="1, 672, 1, 1" offset="891952" size="1344" />
			<output>
				<port id="0" precision="FP16">
					<dim>1</dim>
					<dim>672</dim>
					<dim>1</dim>
					<dim>1</dim>
				</port>
			</output>
		</layer>
		<layer id="258" name="Transpose_1271" type="Convert" version="opset1">
			<data destination_type="f32" />
			<rt_info>
				<attribute name="decompression" version="0" />
			</rt_info>
			<input>
				<port id="0" precision="FP16">
					<dim>1</dim>
					<dim>672</dim>
					<dim>1</dim>
					<dim>1</dim>
				</port>
			</input>
			<output>
				<port id="1" precision="FP32">
					<dim>1</dim>
					<dim>672</dim>
					<dim>1</dim>
					<dim>1</dim>
				</port>
			</output>
		</layer>
		<layer id="259" name="Transpose_1273" type="Add" version="opset1">
			<data auto_broadcast="numpy" />
			<input>
				<port id="0" precision="FP32">
					<dim>1</dim>
					<dim>672</dim>
					<dim>14</dim>
					<dim>14</dim>
				</port>
				<port id="1" precision="FP32">
					<dim>1</dim>
					<dim>672</dim>
					<dim>1</dim>
					<dim>1</dim>
				</port>
			</input>
			<output>
				<port id="2" precision="FP32">
					<dim>1</dim>
					<dim>672</dim>
					<dim>14</dim>
					<dim>14</dim>
				</port>
			</output>
		</layer>
		<layer id="260" name="Transpose_1275" type="Clamp" version="opset1">
			<data min="0" max="6" />
			<input>
				<port id="0" precision="FP32">
					<dim>1</dim>
					<dim>672</dim>
					<dim>14</dim>
					<dim>14</dim>
				</port>
			</input>
			<output>
				<port id="1" precision="FP32">
					<dim>1</dim>
					<dim>672</dim>
					<dim>14</dim>
					<dim>14</dim>
				</port>
			</output>
		</layer>
		<layer id="261" name="Transpose_1777_compressed" type="Const" version="opset1">
			<data element_type="f16" shape="112, 672, 1, 1" offset="893296" size="150528" />
			<output>
				<port id="0" precision="FP16" names="model_1/model/conv2d_19/Conv2D_dequantize">
					<dim>112</dim>
					<dim>672</dim>
					<dim>1</dim>
					<dim>1</dim>
				</port>
			</output>
		</layer>
		<layer id="262" name="Transpose_1777" type="Convert" version="opset1">
			<data destination_type="f32" />
			<rt_info>
				<attribute name="decompression" version="0" />
			</rt_info>
			<input>
				<port id="0" precision="FP16">
					<dim>112</dim>
					<dim>672</dim>
					<dim>1</dim>
					<dim>1</dim>
				</port>
			</input>
			<output>
				<port id="1" precision="FP32">
					<dim>112</dim>
					<dim>672</dim>
					<dim>1</dim>
					<dim>1</dim>
				</port>
			</output>
		</layer>
		<layer id="263" name="Convolution_545" type="Convolution" version="opset1">
			<data strides="1, 1" dilations="1, 1" pads_begin="0, 0" pads_end="0, 0" auto_pad="same_upper" />
			<input>
				<port id="0" precision="FP32">
					<dim>1</dim>
					<dim>672</dim>
					<dim>14</dim>
					<dim>14</dim>
				</port>
				<port id="1" precision="FP32">
					<dim>112</dim>
					<dim>672</dim>
					<dim>1</dim>
					<dim>1</dim>
				</port>
			</input>
			<output>
				<port id="2" precision="FP32">
					<dim>1</dim>
					<dim>112</dim>
					<dim>14</dim>
					<dim>14</dim>
				</port>
			</output>
		</layer>
		<layer id="264" name="Transpose_1279_compressed" type="Const" version="opset1">
			<data element_type="f16" shape="1, 112, 1, 1" offset="1043824" size="224" />
			<output>
				<port id="0" precision="FP16">
					<dim>1</dim>
					<dim>112</dim>
					<dim>1</dim>
					<dim>1</dim>
				</port>
			</output>
		</layer>
		<layer id="265" name="Transpose_1279" type="Convert" version="opset1">
			<data destination_type="f32" />
			<rt_info>
				<attribute name="decompression" version="0" />
			</rt_info>
			<input>
				<port id="0" precision="FP16">
					<dim>1</dim>
					<dim>112</dim>
					<dim>1</dim>
					<dim>1</dim>
				</port>
			</input>
			<output>
				<port id="1" precision="FP32">
					<dim>1</dim>
					<dim>112</dim>
					<dim>1</dim>
					<dim>1</dim>
				</port>
			</output>
		</layer>
		<layer id="266" name="Transpose_1281" type="Add" version="opset1">
			<data auto_broadcast="numpy" />
			<input>
				<port id="0" precision="FP32">
					<dim>1</dim>
					<dim>112</dim>
					<dim>14</dim>
					<dim>14</dim>
				</port>
				<port id="1" precision="FP32">
					<dim>1</dim>
					<dim>112</dim>
					<dim>1</dim>
					<dim>1</dim>
				</port>
			</input>
			<output>
				<port id="2" precision="FP32">
					<dim>1</dim>
					<dim>112</dim>
					<dim>14</dim>
					<dim>14</dim>
				</port>
			</output>
		</layer>
		<layer id="267" name="Transpose_1285" type="Add" version="opset1">
			<data auto_broadcast="numpy" />
			<input>
				<port id="0" precision="FP32">
					<dim>1</dim>
					<dim>112</dim>
					<dim>14</dim>
					<dim>14</dim>
				</port>
				<port id="1" precision="FP32">
					<dim>1</dim>
					<dim>112</dim>
					<dim>14</dim>
					<dim>14</dim>
				</port>
			</input>
			<output>
				<port id="2" precision="FP32">
					<dim>1</dim>
					<dim>112</dim>
					<dim>14</dim>
					<dim>14</dim>
				</port>
			</output>
		</layer>
		<layer id="268" name="Transpose_1785_compressed" type="Const" version="opset1">
			<data element_type="f16" shape="672, 112, 1, 1" offset="1044048" size="150528" />
			<output>
				<port id="0" precision="FP16" names="model_1/model/conv2d_20/Conv2D_dequantize">
					<dim>672</dim>
					<dim>112</dim>
					<dim>1</dim>
					<dim>1</dim>
				</port>
			</output>
		</layer>
		<layer id="269" name="Transpose_1785" type="Convert" version="opset1">
			<data destination_type="f32" />
			<rt_info>
				<attribute name="decompression" version="0" />
			</rt_info>
			<input>
				<port id="0" precision="FP16">
					<dim>672</dim>
					<dim>112</dim>
					<dim>1</dim>
					<dim>1</dim>
				</port>
			</input>
			<output>
				<port id="1" precision="FP32">
					<dim>672</dim>
					<dim>112</dim>
					<dim>1</dim>
					<dim>1</dim>
				</port>
			</output>
		</layer>
		<layer id="270" name="Convolution_558" type="Convolution" version="opset1">
			<data strides="1, 1" dilations="1, 1" pads_begin="0, 0" pads_end="0, 0" auto_pad="same_upper" />
			<input>
				<port id="0" precision="FP32">
					<dim>1</dim>
					<dim>112</dim>
					<dim>14</dim>
					<dim>14</dim>
				</port>
				<port id="1" precision="FP32">
					<dim>672</dim>
					<dim>112</dim>
					<dim>1</dim>
					<dim>1</dim>
				</port>
			</input>
			<output>
				<port id="2" precision="FP32">
					<dim>1</dim>
					<dim>672</dim>
					<dim>14</dim>
					<dim>14</dim>
				</port>
			</output>
		</layer>
		<layer id="271" name="Transpose_1289_compressed" type="Const" version="opset1">
			<data element_type="f16" shape="1, 672, 1, 1" offset="1194576" size="1344" />
			<output>
				<port id="0" precision="FP16">
					<dim>1</dim>
					<dim>672</dim>
					<dim>1</dim>
					<dim>1</dim>
				</port>
			</output>
		</layer>
		<layer id="272" name="Transpose_1289" type="Convert" version="opset1">
			<data destination_type="f32" />
			<rt_info>
				<attribute name="decompression" version="0" />
			</rt_info>
			<input>
				<port id="0" precision="FP16">
					<dim>1</dim>
					<dim>672</dim>
					<dim>1</dim>
					<dim>1</dim>
				</port>
			</input>
			<output>
				<port id="1" precision="FP32">
					<dim>1</dim>
					<dim>672</dim>
					<dim>1</dim>
					<dim>1</dim>
				</port>
			</output>
		</layer>
		<layer id="273" name="Transpose_1291" type="Add" version="opset1">
			<data auto_broadcast="numpy" />
			<input>
				<port id="0" precision="FP32">
					<dim>1</dim>
					<dim>672</dim>
					<dim>14</dim>
					<dim>14</dim>
				</port>
				<port id="1" precision="FP32">
					<dim>1</dim>
					<dim>672</dim>
					<dim>1</dim>
					<dim>1</dim>
				</port>
			</input>
			<output>
				<port id="2" precision="FP32">
					<dim>1</dim>
					<dim>672</dim>
					<dim>14</dim>
					<dim>14</dim>
				</port>
			</output>
		</layer>
		<layer id="274" name="Transpose_1293" type="Clamp" version="opset1">
			<data min="0" max="6" />
			<input>
				<port id="0" precision="FP32">
					<dim>1</dim>
					<dim>672</dim>
					<dim>14</dim>
					<dim>14</dim>
				</port>
			</input>
			<output>
				<port id="1" precision="FP32">
					<dim>1</dim>
					<dim>672</dim>
					<dim>14</dim>
					<dim>14</dim>
				</port>
			</output>
		</layer>
		<layer id="275" name="model_1/model/batch_normalization_31/FusedBatchNormV3;model_1/model/depthwise_conv2d_10/depthwise;model_1/model/depthwise_conv2d_11/depthwise" type="Const" version="opset1">
			<data element_type="f16" shape="1, 5, 5, 672" offset="1195920" size="33600" />
			<output>
				<port id="0" precision="FP16" names="model_1/model/batch_normalization_31/FusedBatchNormV3;model_1/model/depthwise_conv2d_10/depthwise;model_1/model/depthwise_conv2d_11/depthwise">
					<dim>1</dim>
					<dim>5</dim>
					<dim>5</dim>
					<dim>672</dim>
				</port>
			</output>
		</layer>
		<layer id="276" name="99" type="Convert" version="opset1">
			<data destination_type="f32" />
			<rt_info>
				<attribute name="decompression" version="0" />
			</rt_info>
			<input>
				<port id="0" precision="FP16">
					<dim>1</dim>
					<dim>5</dim>
					<dim>5</dim>
					<dim>672</dim>
				</port>
			</input>
			<output>
				<port id="1" precision="FP32" names="model_1/model/batch_normalization_31/FusedBatchNormV3;model_1/model/depthwise_conv2d_10/depthwise;model_1/model/depthwise_conv2d_11/depthwise_dequantize">
					<dim>1</dim>
					<dim>5</dim>
					<dim>5</dim>
					<dim>672</dim>
				</port>
			</output>
		</layer>
		<layer id="277" name="Constant_3931" type="Const" version="opset1">
			<data element_type="i64" shape="4" offset="891920" size="32" />
			<rt_info>
				<attribute name="precise" version="0" />
			</rt_info>
			<output>
				<port id="0" precision="I64">
					<dim>4</dim>
				</port>
			</output>
		</layer>
		<layer id="278" name="Transpose_566" type="Reshape" version="opset1">
			<data special_zero="true" />
			<input>
				<port id="0" precision="FP32">
					<dim>1</dim>
					<dim>5</dim>
					<dim>5</dim>
					<dim>672</dim>
				</port>
				<port id="1" precision="I64">
					<dim>4</dim>
				</port>
			</input>
			<output>
				<port id="2" precision="FP32">
					<dim>5</dim>
					<dim>5</dim>
					<dim>672</dim>
					<dim>1</dim>
				</port>
			</output>
		</layer>
		<layer id="279" name="Constant_573" type="Const" version="opset1">
			<data element_type="i64" shape="1" offset="1840" size="8" />
			<output>
				<port id="0" precision="I64">
					<dim>1</dim>
				</port>
			</output>
		</layer>
		<layer id="280" name="Transpose_1296" type="Unsqueeze" version="opset1">
			<input>
				<port id="0" precision="FP32">
					<dim>5</dim>
					<dim>5</dim>
					<dim>672</dim>
					<dim>1</dim>
				</port>
				<port id="1" precision="I64">
					<dim>1</dim>
				</port>
			</input>
			<output>
				<port id="2" precision="FP32">
					<dim>5</dim>
					<dim>5</dim>
					<dim>672</dim>
					<dim>1</dim>
					<dim>1</dim>
				</port>
			</output>
		</layer>
		<layer id="281" name="Constant_1297" type="Const" version="opset1">
			<data element_type="i64" shape="5" offset="1848" size="40" />
			<output>
				<port id="0" precision="I64">
					<dim>5</dim>
				</port>
			</output>
		</layer>
		<layer id="282" name="Transpose_576" type="Transpose" version="opset1">
			<input>
				<port id="0" precision="FP32">
					<dim>5</dim>
					<dim>5</dim>
					<dim>672</dim>
					<dim>1</dim>
					<dim>1</dim>
				</port>
				<port id="1" precision="I64">
					<dim>5</dim>
				</port>
			</input>
			<output>
				<port id="2" precision="FP32">
					<dim>672</dim>
					<dim>1</dim>
					<dim>1</dim>
					<dim>5</dim>
					<dim>5</dim>
				</port>
			</output>
		</layer>
		<layer id="283" name="GroupConvolution_577" type="GroupConvolution" version="opset1">
			<data strides="1, 1" pads_begin="0, 0" pads_end="0, 0" dilations="1, 1" auto_pad="same_upper" />
			<input>
				<port id="0" precision="FP32">
					<dim>1</dim>
					<dim>672</dim>
					<dim>14</dim>
					<dim>14</dim>
				</port>
				<port id="1" precision="FP32">
					<dim>672</dim>
					<dim>1</dim>
					<dim>1</dim>
					<dim>5</dim>
					<dim>5</dim>
				</port>
			</input>
			<output>
				<port id="2" precision="FP32">
					<dim>1</dim>
					<dim>672</dim>
					<dim>14</dim>
					<dim>14</dim>
				</port>
			</output>
		</layer>
		<layer id="284" name="Transpose_1302_compressed" type="Const" version="opset1">
			<data element_type="f16" shape="1, 672, 1, 1" offset="1229520" size="1344" />
			<output>
				<port id="0" precision="FP16">
					<dim>1</dim>
					<dim>672</dim>
					<dim>1</dim>
					<dim>1</dim>
				</port>
			</output>
		</layer>
		<layer id="285" name="Transpose_1302" type="Convert" version="opset1">
			<data destination_type="f32" />
			<rt_info>
				<attribute name="decompression" version="0" />
			</rt_info>
			<input>
				<port id="0" precision="FP16">
					<dim>1</dim>
					<dim>672</dim>
					<dim>1</dim>
					<dim>1</dim>
				</port>
			</input>
			<output>
				<port id="1" precision="FP32">
					<dim>1</dim>
					<dim>672</dim>
					<dim>1</dim>
					<dim>1</dim>
				</port>
			</output>
		</layer>
		<layer id="286" name="Transpose_1304" type="Add" version="opset1">
			<data auto_broadcast="numpy" />
			<input>
				<port id="0" precision="FP32">
					<dim>1</dim>
					<dim>672</dim>
					<dim>14</dim>
					<dim>14</dim>
				</port>
				<port id="1" precision="FP32">
					<dim>1</dim>
					<dim>672</dim>
					<dim>1</dim>
					<dim>1</dim>
				</port>
			</input>
			<output>
				<port id="2" precision="FP32">
					<dim>1</dim>
					<dim>672</dim>
					<dim>14</dim>
					<dim>14</dim>
				</port>
			</output>
		</layer>
		<layer id="287" name="Transpose_1306" type="Clamp" version="opset1">
			<data min="0" max="6" />
			<input>
				<port id="0" precision="FP32">
					<dim>1</dim>
					<dim>672</dim>
					<dim>14</dim>
					<dim>14</dim>
				</port>
			</input>
			<output>
				<port id="1" precision="FP32">
					<dim>1</dim>
					<dim>672</dim>
					<dim>14</dim>
					<dim>14</dim>
				</port>
			</output>
		</layer>
		<layer id="288" name="Transpose_1799_compressed" type="Const" version="opset1">
			<data element_type="f16" shape="112, 672, 1, 1" offset="1230864" size="150528" />
			<output>
				<port id="0" precision="FP16" names="model_1/model/conv2d_21/Conv2D_dequantize">
					<dim>112</dim>
					<dim>672</dim>
					<dim>1</dim>
					<dim>1</dim>
				</port>
			</output>
		</layer>
		<layer id="289" name="Transpose_1799" type="Convert" version="opset1">
			<data destination_type="f32" />
			<rt_info>
				<attribute name="decompression" version="0" />
			</rt_info>
			<input>
				<port id="0" precision="FP16">
					<dim>112</dim>
					<dim>672</dim>
					<dim>1</dim>
					<dim>1</dim>
				</port>
			</input>
			<output>
				<port id="1" precision="FP32">
					<dim>112</dim>
					<dim>672</dim>
					<dim>1</dim>
					<dim>1</dim>
				</port>
			</output>
		</layer>
		<layer id="290" name="Convolution_590" type="Convolution" version="opset1">
			<data strides="1, 1" dilations="1, 1" pads_begin="0, 0" pads_end="0, 0" auto_pad="same_upper" />
			<input>
				<port id="0" precision="FP32">
					<dim>1</dim>
					<dim>672</dim>
					<dim>14</dim>
					<dim>14</dim>
				</port>
				<port id="1" precision="FP32">
					<dim>112</dim>
					<dim>672</dim>
					<dim>1</dim>
					<dim>1</dim>
				</port>
			</input>
			<output>
				<port id="2" precision="FP32">
					<dim>1</dim>
					<dim>112</dim>
					<dim>14</dim>
					<dim>14</dim>
				</port>
			</output>
		</layer>
		<layer id="291" name="Transpose_1310_compressed" type="Const" version="opset1">
			<data element_type="f16" shape="1, 112, 1, 1" offset="1381392" size="224" />
			<output>
				<port id="0" precision="FP16">
					<dim>1</dim>
					<dim>112</dim>
					<dim>1</dim>
					<dim>1</dim>
				</port>
			</output>
		</layer>
		<layer id="292" name="Transpose_1310" type="Convert" version="opset1">
			<data destination_type="f32" />
			<rt_info>
				<attribute name="decompression" version="0" />
			</rt_info>
			<input>
				<port id="0" precision="FP16">
					<dim>1</dim>
					<dim>112</dim>
					<dim>1</dim>
					<dim>1</dim>
				</port>
			</input>
			<output>
				<port id="1" precision="FP32">
					<dim>1</dim>
					<dim>112</dim>
					<dim>1</dim>
					<dim>1</dim>
				</port>
			</output>
		</layer>
		<layer id="293" name="Transpose_1312" type="Add" version="opset1">
			<data auto_broadcast="numpy" />
			<input>
				<port id="0" precision="FP32">
					<dim>1</dim>
					<dim>112</dim>
					<dim>14</dim>
					<dim>14</dim>
				</port>
				<port id="1" precision="FP32">
					<dim>1</dim>
					<dim>112</dim>
					<dim>1</dim>
					<dim>1</dim>
				</port>
			</input>
			<output>
				<port id="2" precision="FP32">
					<dim>1</dim>
					<dim>112</dim>
					<dim>14</dim>
					<dim>14</dim>
				</port>
			</output>
		</layer>
		<layer id="294" name="Transpose_1316" type="Add" version="opset1">
			<data auto_broadcast="numpy" />
			<input>
				<port id="0" precision="FP32">
					<dim>1</dim>
					<dim>112</dim>
					<dim>14</dim>
					<dim>14</dim>
				</port>
				<port id="1" precision="FP32">
					<dim>1</dim>
					<dim>112</dim>
					<dim>14</dim>
					<dim>14</dim>
				</port>
			</input>
			<output>
				<port id="2" precision="FP32">
					<dim>1</dim>
					<dim>112</dim>
					<dim>14</dim>
					<dim>14</dim>
				</port>
			</output>
		</layer>
		<layer id="295" name="Transpose_1807_compressed" type="Const" version="opset1">
			<data element_type="f16" shape="672, 112, 1, 1" offset="1381616" size="150528" />
			<output>
				<port id="0" precision="FP16" names="model_1/model/conv2d_22/Conv2D_dequantize">
					<dim>672</dim>
					<dim>112</dim>
					<dim>1</dim>
					<dim>1</dim>
				</port>
			</output>
		</layer>
		<layer id="296" name="Transpose_1807" type="Convert" version="opset1">
			<data destination_type="f32" />
			<rt_info>
				<attribute name="decompression" version="0" />
			</rt_info>
			<input>
				<port id="0" precision="FP16">
					<dim>672</dim>
					<dim>112</dim>
					<dim>1</dim>
					<dim>1</dim>
				</port>
			</input>
			<output>
				<port id="1" precision="FP32">
					<dim>672</dim>
					<dim>112</dim>
					<dim>1</dim>
					<dim>1</dim>
				</port>
			</output>
		</layer>
		<layer id="297" name="Convolution_603" type="Convolution" version="opset1">
			<data strides="1, 1" dilations="1, 1" pads_begin="0, 0" pads_end="0, 0" auto_pad="same_upper" />
			<input>
				<port id="0" precision="FP32">
					<dim>1</dim>
					<dim>112</dim>
					<dim>14</dim>
					<dim>14</dim>
				</port>
				<port id="1" precision="FP32">
					<dim>672</dim>
					<dim>112</dim>
					<dim>1</dim>
					<dim>1</dim>
				</port>
			</input>
			<output>
				<port id="2" precision="FP32">
					<dim>1</dim>
					<dim>672</dim>
					<dim>14</dim>
					<dim>14</dim>
				</port>
			</output>
		</layer>
		<layer id="298" name="Transpose_1320_compressed" type="Const" version="opset1">
			<data element_type="f16" shape="1, 672, 1, 1" offset="1532144" size="1344" />
			<output>
				<port id="0" precision="FP16">
					<dim>1</dim>
					<dim>672</dim>
					<dim>1</dim>
					<dim>1</dim>
				</port>
			</output>
		</layer>
		<layer id="299" name="Transpose_1320" type="Convert" version="opset1">
			<data destination_type="f32" />
			<rt_info>
				<attribute name="decompression" version="0" />
			</rt_info>
			<input>
				<port id="0" precision="FP16">
					<dim>1</dim>
					<dim>672</dim>
					<dim>1</dim>
					<dim>1</dim>
				</port>
			</input>
			<output>
				<port id="1" precision="FP32">
					<dim>1</dim>
					<dim>672</dim>
					<dim>1</dim>
					<dim>1</dim>
				</port>
			</output>
		</layer>
		<layer id="300" name="Transpose_1322" type="Add" version="opset1">
			<data auto_broadcast="numpy" />
			<input>
				<port id="0" precision="FP32">
					<dim>1</dim>
					<dim>672</dim>
					<dim>14</dim>
					<dim>14</dim>
				</port>
				<port id="1" precision="FP32">
					<dim>1</dim>
					<dim>672</dim>
					<dim>1</dim>
					<dim>1</dim>
				</port>
			</input>
			<output>
				<port id="2" precision="FP32">
					<dim>1</dim>
					<dim>672</dim>
					<dim>14</dim>
					<dim>14</dim>
				</port>
			</output>
		</layer>
		<layer id="301" name="Transpose_1324" type="Clamp" version="opset1">
			<data min="0" max="6" />
			<input>
				<port id="0" precision="FP32">
					<dim>1</dim>
					<dim>672</dim>
					<dim>14</dim>
					<dim>14</dim>
				</port>
			</input>
			<output>
				<port id="1" precision="FP32">
					<dim>1</dim>
					<dim>672</dim>
					<dim>14</dim>
					<dim>14</dim>
				</port>
			</output>
		</layer>
		<layer id="302" name="model_1/model/batch_normalization_34/FusedBatchNormV3;model_1/model/depthwise_conv2d_11/depthwise" type="Const" version="opset1">
			<data element_type="f16" shape="1, 5, 5, 672" offset="1533488" size="33600" />
			<output>
				<port id="0" precision="FP16" names="model_1/model/batch_normalization_34/FusedBatchNormV3;model_1/model/depthwise_conv2d_11/depthwise">
					<dim>1</dim>
					<dim>5</dim>
					<dim>5</dim>
					<dim>672</dim>
				</port>
			</output>
		</layer>
		<layer id="303" name="108" type="Convert" version="opset1">
			<data destination_type="f32" />
			<rt_info>
				<attribute name="decompression" version="0" />
			</rt_info>
			<input>
				<port id="0" precision="FP16">
					<dim>1</dim>
					<dim>5</dim>
					<dim>5</dim>
					<dim>672</dim>
				</port>
			</input>
			<output>
				<port id="1" precision="FP32" names="model_1/model/batch_normalization_34/FusedBatchNormV3;model_1/model/depthwise_conv2d_11/depthwise_dequantize">
					<dim>1</dim>
					<dim>5</dim>
					<dim>5</dim>
					<dim>672</dim>
				</port>
			</output>
		</layer>
		<layer id="304" name="Constant_3941" type="Const" version="opset1">
			<data element_type="i64" shape="4" offset="891920" size="32" />
			<rt_info>
				<attribute name="precise" version="0" />
			</rt_info>
			<output>
				<port id="0" precision="I64">
					<dim>4</dim>
				</port>
			</output>
		</layer>
		<layer id="305" name="Transpose_611" type="Reshape" version="opset1">
			<data special_zero="true" />
			<input>
				<port id="0" precision="FP32">
					<dim>1</dim>
					<dim>5</dim>
					<dim>5</dim>
					<dim>672</dim>
				</port>
				<port id="1" precision="I64">
					<dim>4</dim>
				</port>
			</input>
			<output>
				<port id="2" precision="FP32">
					<dim>5</dim>
					<dim>5</dim>
					<dim>672</dim>
					<dim>1</dim>
				</port>
			</output>
		</layer>
		<layer id="306" name="Constant_618" type="Const" version="opset1">
			<data element_type="i64" shape="1" offset="1840" size="8" />
			<output>
				<port id="0" precision="I64">
					<dim>1</dim>
				</port>
			</output>
		</layer>
		<layer id="307" name="Transpose_1327" type="Unsqueeze" version="opset1">
			<input>
				<port id="0" precision="FP32">
					<dim>5</dim>
					<dim>5</dim>
					<dim>672</dim>
					<dim>1</dim>
				</port>
				<port id="1" precision="I64">
					<dim>1</dim>
				</port>
			</input>
			<output>
				<port id="2" precision="FP32">
					<dim>5</dim>
					<dim>5</dim>
					<dim>672</dim>
					<dim>1</dim>
					<dim>1</dim>
				</port>
			</output>
		</layer>
		<layer id="308" name="Constant_1328" type="Const" version="opset1">
			<data element_type="i64" shape="5" offset="1848" size="40" />
			<output>
				<port id="0" precision="I64">
					<dim>5</dim>
				</port>
			</output>
		</layer>
		<layer id="309" name="Transpose_621" type="Transpose" version="opset1">
			<input>
				<port id="0" precision="FP32">
					<dim>5</dim>
					<dim>5</dim>
					<dim>672</dim>
					<dim>1</dim>
					<dim>1</dim>
				</port>
				<port id="1" precision="I64">
					<dim>5</dim>
				</port>
			</input>
			<output>
				<port id="2" precision="FP32">
					<dim>672</dim>
					<dim>1</dim>
					<dim>1</dim>
					<dim>5</dim>
					<dim>5</dim>
				</port>
			</output>
		</layer>
		<layer id="310" name="GroupConvolution_622" type="GroupConvolution" version="opset1">
			<data strides="2, 2" pads_begin="0, 0" pads_end="0, 0" dilations="1, 1" auto_pad="same_upper" />
			<input>
				<port id="0" precision="FP32">
					<dim>1</dim>
					<dim>672</dim>
					<dim>14</dim>
					<dim>14</dim>
				</port>
				<port id="1" precision="FP32">
					<dim>672</dim>
					<dim>1</dim>
					<dim>1</dim>
					<dim>5</dim>
					<dim>5</dim>
				</port>
			</input>
			<output>
				<port id="2" precision="FP32">
					<dim>1</dim>
					<dim>672</dim>
					<dim>7</dim>
					<dim>7</dim>
				</port>
			</output>
		</layer>
		<layer id="311" name="Transpose_1333_compressed" type="Const" version="opset1">
			<data element_type="f16" shape="1, 672, 1, 1" offset="1567088" size="1344" />
			<output>
				<port id="0" precision="FP16">
					<dim>1</dim>
					<dim>672</dim>
					<dim>1</dim>
					<dim>1</dim>
				</port>
			</output>
		</layer>
		<layer id="312" name="Transpose_1333" type="Convert" version="opset1">
			<data destination_type="f32" />
			<rt_info>
				<attribute name="decompression" version="0" />
			</rt_info>
			<input>
				<port id="0" precision="FP16">
					<dim>1</dim>
					<dim>672</dim>
					<dim>1</dim>
					<dim>1</dim>
				</port>
			</input>
			<output>
				<port id="1" precision="FP32">
					<dim>1</dim>
					<dim>672</dim>
					<dim>1</dim>
					<dim>1</dim>
				</port>
			</output>
		</layer>
		<layer id="313" name="Transpose_1335" type="Add" version="opset1">
			<data auto_broadcast="numpy" />
			<input>
				<port id="0" precision="FP32">
					<dim>1</dim>
					<dim>672</dim>
					<dim>7</dim>
					<dim>7</dim>
				</port>
				<port id="1" precision="FP32">
					<dim>1</dim>
					<dim>672</dim>
					<dim>1</dim>
					<dim>1</dim>
				</port>
			</input>
			<output>
				<port id="2" precision="FP32">
					<dim>1</dim>
					<dim>672</dim>
					<dim>7</dim>
					<dim>7</dim>
				</port>
			</output>
		</layer>
		<layer id="314" name="Transpose_1337" type="Clamp" version="opset1">
			<data min="0" max="6" />
			<input>
				<port id="0" precision="FP32">
					<dim>1</dim>
					<dim>672</dim>
					<dim>7</dim>
					<dim>7</dim>
				</port>
			</input>
			<output>
				<port id="1" precision="FP32">
					<dim>1</dim>
					<dim>672</dim>
					<dim>7</dim>
					<dim>7</dim>
				</port>
			</output>
		</layer>
		<layer id="315" name="Transpose_1821_compressed" type="Const" version="opset1">
			<data element_type="f16" shape="192, 672, 1, 1" offset="1568432" size="258048" />
			<output>
				<port id="0" precision="FP16" names="model_1/model/conv2d_23/Conv2D_dequantize">
					<dim>192</dim>
					<dim>672</dim>
					<dim>1</dim>
					<dim>1</dim>
				</port>
			</output>
		</layer>
		<layer id="316" name="Transpose_1821" type="Convert" version="opset1">
			<data destination_type="f32" />
			<rt_info>
				<attribute name="decompression" version="0" />
			</rt_info>
			<input>
				<port id="0" precision="FP16">
					<dim>192</dim>
					<dim>672</dim>
					<dim>1</dim>
					<dim>1</dim>
				</port>
			</input>
			<output>
				<port id="1" precision="FP32">
					<dim>192</dim>
					<dim>672</dim>
					<dim>1</dim>
					<dim>1</dim>
				</port>
			</output>
		</layer>
		<layer id="317" name="Convolution_635" type="Convolution" version="opset1">
			<data strides="1, 1" dilations="1, 1" pads_begin="0, 0" pads_end="0, 0" auto_pad="same_upper" />
			<input>
				<port id="0" precision="FP32">
					<dim>1</dim>
					<dim>672</dim>
					<dim>7</dim>
					<dim>7</dim>
				</port>
				<port id="1" precision="FP32">
					<dim>192</dim>
					<dim>672</dim>
					<dim>1</dim>
					<dim>1</dim>
				</port>
			</input>
			<output>
				<port id="2" precision="FP32">
					<dim>1</dim>
					<dim>192</dim>
					<dim>7</dim>
					<dim>7</dim>
				</port>
			</output>
		</layer>
		<layer id="318" name="Transpose_1341_compressed" type="Const" version="opset1">
			<data element_type="f16" shape="1, 192, 1, 1" offset="1826480" size="384" />
			<output>
				<port id="0" precision="FP16">
					<dim>1</dim>
					<dim>192</dim>
					<dim>1</dim>
					<dim>1</dim>
				</port>
			</output>
		</layer>
		<layer id="319" name="Transpose_1341" type="Convert" version="opset1">
			<data destination_type="f32" />
			<rt_info>
				<attribute name="decompression" version="0" />
			</rt_info>
			<input>
				<port id="0" precision="FP16">
					<dim>1</dim>
					<dim>192</dim>
					<dim>1</dim>
					<dim>1</dim>
				</port>
			</input>
			<output>
				<port id="1" precision="FP32">
					<dim>1</dim>
					<dim>192</dim>
					<dim>1</dim>
					<dim>1</dim>
				</port>
			</output>
		</layer>
		<layer id="320" name="Transpose_1343" type="Add" version="opset1">
			<data auto_broadcast="numpy" />
			<input>
				<port id="0" precision="FP32">
					<dim>1</dim>
					<dim>192</dim>
					<dim>7</dim>
					<dim>7</dim>
				</port>
				<port id="1" precision="FP32">
					<dim>1</dim>
					<dim>192</dim>
					<dim>1</dim>
					<dim>1</dim>
				</port>
			</input>
			<output>
				<port id="2" precision="FP32">
					<dim>1</dim>
					<dim>192</dim>
					<dim>7</dim>
					<dim>7</dim>
				</port>
			</output>
		</layer>
		<layer id="321" name="Transpose_1829_compressed" type="Const" version="opset1">
			<data element_type="f16" shape="1152, 192, 1, 1" offset="1826864" size="442368" />
			<output>
				<port id="0" precision="FP16" names="model_1/model/conv2d_24/Conv2D_dequantize">
					<dim>1152</dim>
					<dim>192</dim>
					<dim>1</dim>
					<dim>1</dim>
				</port>
			</output>
		</layer>
		<layer id="322" name="Transpose_1829" type="Convert" version="opset1">
			<data destination_type="f32" />
			<rt_info>
				<attribute name="decompression" version="0" />
			</rt_info>
			<input>
				<port id="0" precision="FP16">
					<dim>1152</dim>
					<dim>192</dim>
					<dim>1</dim>
					<dim>1</dim>
				</port>
			</input>
			<output>
				<port id="1" precision="FP32">
					<dim>1152</dim>
					<dim>192</dim>
					<dim>1</dim>
					<dim>1</dim>
				</port>
			</output>
		</layer>
		<layer id="323" name="Convolution_647" type="Convolution" version="opset1">
			<data strides="1, 1" dilations="1, 1" pads_begin="0, 0" pads_end="0, 0" auto_pad="same_upper" />
			<input>
				<port id="0" precision="FP32">
					<dim>1</dim>
					<dim>192</dim>
					<dim>7</dim>
					<dim>7</dim>
				</port>
				<port id="1" precision="FP32">
					<dim>1152</dim>
					<dim>192</dim>
					<dim>1</dim>
					<dim>1</dim>
				</port>
			</input>
			<output>
				<port id="2" precision="FP32">
					<dim>1</dim>
					<dim>1152</dim>
					<dim>7</dim>
					<dim>7</dim>
				</port>
			</output>
		</layer>
		<layer id="324" name="Transpose_1347_compressed" type="Const" version="opset1">
			<data element_type="f16" shape="1, 1152, 1, 1" offset="2269232" size="2304" />
			<output>
				<port id="0" precision="FP16">
					<dim>1</dim>
					<dim>1152</dim>
					<dim>1</dim>
					<dim>1</dim>
				</port>
			</output>
		</layer>
		<layer id="325" name="Transpose_1347" type="Convert" version="opset1">
			<data destination_type="f32" />
			<rt_info>
				<attribute name="decompression" version="0" />
			</rt_info>
			<input>
				<port id="0" precision="FP16">
					<dim>1</dim>
					<dim>1152</dim>
					<dim>1</dim>
					<dim>1</dim>
				</port>
			</input>
			<output>
				<port id="1" precision="FP32">
					<dim>1</dim>
					<dim>1152</dim>
					<dim>1</dim>
					<dim>1</dim>
				</port>
			</output>
		</layer>
		<layer id="326" name="Transpose_1349" type="Add" version="opset1">
			<data auto_broadcast="numpy" />
			<input>
				<port id="0" precision="FP32">
					<dim>1</dim>
					<dim>1152</dim>
					<dim>7</dim>
					<dim>7</dim>
				</port>
				<port id="1" precision="FP32">
					<dim>1</dim>
					<dim>1152</dim>
					<dim>1</dim>
					<dim>1</dim>
				</port>
			</input>
			<output>
				<port id="2" precision="FP32">
					<dim>1</dim>
					<dim>1152</dim>
					<dim>7</dim>
					<dim>7</dim>
				</port>
			</output>
		</layer>
		<layer id="327" name="Transpose_1351" type="Clamp" version="opset1">
			<data min="0" max="6" />
			<input>
				<port id="0" precision="FP32">
					<dim>1</dim>
					<dim>1152</dim>
					<dim>7</dim>
					<dim>7</dim>
				</port>
			</input>
			<output>
				<port id="1" precision="FP32">
					<dim>1</dim>
					<dim>1152</dim>
					<dim>7</dim>
					<dim>7</dim>
				</port>
			</output>
		</layer>
		<layer id="328" name="model_1/model/batch_normalization_37/FusedBatchNormV3;model_1/model/depthwise_conv2d_12/depthwise;model_1/model/depthwise_conv2d_15/depthwise" type="Const" version="opset1">
			<data element_type="f16" shape="1, 5, 5, 1152" offset="2271536" size="57600" />
			<output>
				<port id="0" precision="FP16" names="model_1/model/batch_normalization_37/FusedBatchNormV3;model_1/model/depthwise_conv2d_12/depthwise;model_1/model/depthwise_conv2d_15/depthwise">
					<dim>1</dim>
					<dim>5</dim>
					<dim>5</dim>
					<dim>1152</dim>
				</port>
			</output>
		</layer>
		<layer id="329" name="118" type="Convert" version="opset1">
			<data destination_type="f32" />
			<rt_info>
				<attribute name="decompression" version="0" />
			</rt_info>
			<input>
				<port id="0" precision="FP16">
					<dim>1</dim>
					<dim>5</dim>
					<dim>5</dim>
					<dim>1152</dim>
				</port>
			</input>
			<output>
				<port id="1" precision="FP32" names="model_1/model/batch_normalization_37/FusedBatchNormV3;model_1/model/depthwise_conv2d_12/depthwise;model_1/model/depthwise_conv2d_15/depthwise_dequantize">
					<dim>1</dim>
					<dim>5</dim>
					<dim>5</dim>
					<dim>1152</dim>
				</port>
			</output>
		</layer>
		<layer id="330" name="Constant_3949" type="Const" version="opset1">
			<data element_type="i64" shape="4" offset="2329136" size="32" />
			<rt_info>
				<attribute name="precise" version="0" />
			</rt_info>
			<output>
				<port id="0" precision="I64">
					<dim>4</dim>
				</port>
			</output>
		</layer>
		<layer id="331" name="Transpose_655" type="Reshape" version="opset1">
			<data special_zero="true" />
			<input>
				<port id="0" precision="FP32">
					<dim>1</dim>
					<dim>5</dim>
					<dim>5</dim>
					<dim>1152</dim>
				</port>
				<port id="1" precision="I64">
					<dim>4</dim>
				</port>
			</input>
			<output>
				<port id="2" precision="FP32">
					<dim>5</dim>
					<dim>5</dim>
					<dim>1152</dim>
					<dim>1</dim>
				</port>
			</output>
		</layer>
		<layer id="332" name="Constant_662" type="Const" version="opset1">
			<data element_type="i64" shape="1" offset="1840" size="8" />
			<output>
				<port id="0" precision="I64">
					<dim>1</dim>
				</port>
			</output>
		</layer>
…
					<dim>3</dim>
					<dim>1152</dim>
				</port>
			</output>
		</layer>
		<layer id="410" name="147" type="Convert" version="opset1">
			<data destination_type="f32" />
			<rt_info>
				<attribute name="decompression" version="0" />
			</rt_info>
			<input>
				<port id="0" precision="FP16">
					<dim>1</dim>
					<dim>3</dim>
					<dim>3</dim>
					<dim>1152</dim>
				</port>
			</input>
			<output>
				<port id="1" precision="FP32" names="model_1/model/batch_normalization_46/FusedBatchNormV3;model_1/model/depthwise_conv2d_15/depthwise_dequantize">
					<dim>1</dim>
					<dim>3</dim>
					<dim>3</dim>
					<dim>1152</dim>
				</port>
			</output>
		</layer>
		<layer id="411" name="Constant_3979" type="Const" version="opset1">
			<data element_type="i64" shape="4" offset="5134288" size="32" />
			<rt_info>
				<attribute name="precise" version="0" />
			</rt_info>
			<output>
				<port id="0" precision="I64">
					<dim>4</dim>
				</port>
			</output>
		</layer>
		<layer id="412" name="Transpose_790" type="Reshape" version="opset1">
			<data special_zero="true" />
			<input>
				<port id="0" precision="FP32">
					<dim>1</dim>
					<dim>3</dim>
					<dim>3</dim>
					<dim>1152</dim>
				</port>
				<port id="1" precision="I64">
					<dim>4</dim>
				</port>
			</input>
			<output>
				<port id="2" precision="FP32">
					<dim>3</dim>
					<dim>3</dim>
					<dim>1152</dim>
					<dim>1</dim>
				</port>
			</output>
		</layer>
		<layer id="413" name="Constant_797" type="Const" version="opset1">
			<data element_type="i64" shape="1" offset="1840" size="8" />
			<output>
				<port id="0" precision="I64">
					<dim>1</dim>
				</port>
			</output>
		</layer>
		<layer id="414" name="Transpose_1447" type="Unsqueeze" version="opset1">
			<input>
				<port id="0" precision="FP32">
					<dim>3</dim>
					<dim>3</dim>
					<dim>1152</dim>
					<dim>1</dim>
				</port>
				<port id="1" precision="I64">
					<dim>1</dim>
				</port>
			</input>
			<output>
				<port id="2" precision="FP32">
					<dim>3</dim>
					<dim>3</dim>
					<dim>1152</dim>
					<dim>1</dim>
					<dim>1</dim>
				</port>
			</output>
		</layer>
		<layer id="415" name="Constant_1448" type="Const" version="opset1">
			<data element_type="i64" shape="5" offset="1848" size="40" />
			<output>
				<port id="0" precision="I64">
					<dim>5</dim>
				</port>
			</output>
		</layer>
		<layer id="416" name="Transpose_800" type="Transpose" version="opset1">
			<input>
				<port id="0" precision="FP32">
					<dim>3</dim>
					<dim>3</dim>
					<dim>1152</dim>
					<dim>1</dim>
					<dim>1</dim>
				</port>
				<port id="1" precision="I64">
					<dim>5</dim>
				</port>
			</input>
			<output>
				<port id="2" precision="FP32">
					<dim>1152</dim>
					<dim>1</dim>
					<dim>1</dim>
					<dim>3</dim>
					<dim>3</dim>
				</port>
			</output>
		</layer>
		<layer id="417" name="GroupConvolution_801" type="GroupConvolution" version="opset1">
			<data strides="1, 1" pads_begin="0, 0" pads_end="0, 0" dilations="1, 1" auto_pad="same_upper" />
			<input>
				<port id="0" precision="FP32">
					<dim>1</dim>
					<dim>1152</dim>
					<dim>7</dim>
					<dim>7</dim>
				</port>
				<port id="1" precision="FP32">
					<dim>1152</dim>
					<dim>1</dim>
					<dim>1</dim>
					<dim>3</dim>
					<dim>3</dim>
				</port>
			</input>
			<output>
				<port id="2" precision="FP32">
					<dim>1</dim>
					<dim>1152</dim>
					<dim>7</dim>
					<dim>7</dim>
				</port>
			</output>
		</layer>
		<layer id="418" name="Transpose_1453_compressed" type="Const" version="opset1">
			<data element_type="f16" shape="1, 1152, 1, 1" offset="5134320" size="2304" />
			<output>
				<port id="0" precision="FP16">
					<dim>1</dim>
					<dim>1152</dim>
					<dim>1</dim>
					<dim>1</dim>
				</port>
			</output>
		</layer>
		<layer id="419" name="Transpose_1453" type="Convert" version="opset1">
			<data destination_type="f32" />
			<rt_info>
				<attribute name="decompression" version="0" />
			</rt_info>
			<input>
				<port id="0" precision="FP16">
					<dim>1</dim>
					<dim>1152</dim>
					<dim>1</dim>
					<dim>1</dim>
				</port>
			</input>
			<output>
				<port id="1" precision="FP32">
					<dim>1</dim>
					<dim>1152</dim>
					<dim>1</dim>
					<dim>1</dim>
				</port>
			</output>
		</layer>
		<layer id="420" name="Transpose_1455" type="Add" version="opset1">
			<data auto_broadcast="numpy" />
			<input>
				<port id="0" precision="FP32">
					<dim>1</dim>
					<dim>1152</dim>
					<dim>7</dim>
					<dim>7</dim>
				</port>
				<port id="1" precision="FP32">
					<dim>1</dim>
					<dim>1152</dim>
					<dim>1</dim>
					<dim>1</dim>
				</port>
			</input>
			<output>
				<port id="2" precision="FP32">
					<dim>1</dim>
					<dim>1152</dim>
					<dim>7</dim>
					<dim>7</dim>
				</port>
			</output>
		</layer>
		<layer id="421" name="Transpose_1457" type="Clamp" version="opset1">
			<data min="0" max="6" />
			<input>
				<port id="0" precision="FP32">
					<dim>1</dim>
					<dim>1152</dim>
					<dim>7</dim>
					<dim>7</dim>
				</port>
			</input>
			<output>
				<port id="1" precision="FP32">
					<dim>1</dim>
					<dim>1152</dim>
					<dim>7</dim>
					<dim>7</dim>
				</port>
			</output>
		</layer>
		<layer id="422" name="Constant_1459" type="Const" version="opset1">
			<data element_type="i32" shape="2" offset="5136624" size="8" />
			<output>
				<port id="0" precision="I32">
					<dim>2</dim>
				</port>
			</output>
		</layer>
		<layer id="423" name="Transpose_1461" type="ReduceMean" version="opset1">
			<data keep_dims="false" />
			<input>
				<port id="0" precision="FP32">
					<dim>1</dim>
					<dim>1152</dim>
					<dim>7</dim>
					<dim>7</dim>
				</port>
				<port id="1" precision="I32">
					<dim>2</dim>
				</port>
			</input>
			<output>
				<port id="2" precision="FP32" names="model_1/model/global_average_pooling2d/Mean">
					<dim>1</dim>
					<dim>1152</dim>
				</port>
			</output>
		</layer>
		<layer id="424" name="Concat_816" type="Const" version="opset1">
			<data element_type="i64" shape="2" offset="5136632" size="16" />
			<rt_info>
				<attribute name="precise" version="0" />
			</rt_info>
			<output>
				<port id="0" precision="I64">
					<dim>2</dim>
				</port>
			</output>
		</layer>
		<layer id="425" name="Reshape_817" type="Reshape" version="opset1">
			<data special_zero="false" />
			<input>
				<port id="0" precision="FP32">
					<dim>1</dim>
					<dim>1152</dim>
				</port>
				<port id="1" precision="I64">
					<dim>2</dim>
				</port>
			</input>
			<output>
				<port id="2" precision="FP32">
					<dim>1</dim>
					<dim>1152</dim>
				</port>
			</output>
		</layer>
		<layer id="426" name="model_1/model/conv_world_landmarks/MatMul" type="Const" version="opset1">
			<data element_type="f16" shape="63, 1152" offset="5136648" size="145152" />
			<output>
				<port id="0" precision="FP16" names="model_1/model/conv_world_landmarks/MatMul">
					<dim>63</dim>
					<dim>1152</dim>
				</port>
			</output>
		</layer>
		<layer id="427" name="162" type="Convert" version="opset1">
			<data destination_type="f32" />
			<rt_info>
				<attribute name="decompression" version="0" />
			</rt_info>
			<input>
				<port id="0" precision="FP16">
					<dim>63</dim>
					<dim>1152</dim>
				</port>
			</input>
			<output>
				<port id="1" precision="FP32" names="model_1/model/conv_world_landmarks/MatMul_dequantize">
					<dim>63</dim>
					<dim>1152</dim>
				</port>
			</output>
		</layer>
		<layer id="428" name="MatMul_859" type="MatMul" version="opset1">
			<data transpose_a="false" transpose_b="true" />
			<input>
				<port id="0" precision="FP32">
					<dim>1</dim>
					<dim>1152</dim>
				</port>
				<port id="1" precision="FP32">
					<dim>63</dim>
					<dim>1152</dim>
				</port>
			</input>
			<output>
				<port id="2" precision="FP32">
					<dim>1</dim>
					<dim>63</dim>
				</port>
			</output>
		</layer>
		<layer id="429" name="model_1/model/conv_world_landmarks/BiasAdd/ReadVariableOp/resource" type="Const" version="opset1">
			<data element_type="f16" shape="63" offset="5281800" size="126" />
			<output>
				<port id="0" precision="FP16" names="model_1/model/conv_world_landmarks/BiasAdd/ReadVariableOp/resource">
					<dim>63</dim>
				</port>
			</output>
		</layer>
		<layer id="430" name="163" type="Convert" version="opset1">
			<data destination_type="f32" />
			<rt_info>
				<attribute name="decompression" version="0" />
			</rt_info>
			<input>
				<port id="0" precision="FP16">
					<dim>63</dim>
				</port>
			</input>
			<output>
				<port id="1" precision="FP32" names="model_1/model/conv_world_landmarks/BiasAdd/ReadVariableOp/resource_dequantize">
					<dim>63</dim>
				</port>
			</output>
		</layer>
		<layer id="431" name="164" type="Add" version="opset1">
			<data auto_broadcast="numpy" />
			<input>
				<port id="0" precision="FP32">
					<dim>1</dim>
					<dim>63</dim>
				</port>
				<port id="1" precision="FP32">
					<dim>63</dim>
				</port>
			</input>
			<output>
				<port id="2" precision="FP32" names="Identity_3">
					<dim>1</dim>
					<dim>63</dim>
				</port>
			</output>
		</layer>
		<layer id="433" name="model_1/model/conv_handedness/MatMul" type="Const" version="opset1">
			<data element_type="f16" shape="1, 1152" offset="5281926" size="2304" />
			<output>
				<port id="0" precision="FP16" names="model_1/model/conv_handedness/MatMul">
					<dim>1</dim>
					<dim>1152</dim>
				</port>
			</output>
		</layer>
		<layer id="434" name="152" type="Convert" version="opset1">
			<data destination_type="f32" />
			<rt_info>
				<attribute name="decompression" version="0" />
			</rt_info>
			<input>
				<port id="0" precision="FP16">
					<dim>1</dim>
					<dim>1152</dim>
				</port>
			</input>
			<output>
				<port id="1" precision="FP32" names="model_1/model/conv_handedness/MatMul_dequantize">
					<dim>1</dim>
					<dim>1152</dim>
				</port>
			</output>
		</layer>
		<layer id="435" name="MatMul_818" type="MatMul" version="opset1">
			<data transpose_a="false" transpose_b="true" />
			<input>
				<port id="0" precision="FP32">
					<dim>1</dim>
					<dim>1152</dim>
				</port>
				<port id="1" precision="FP32">
					<dim>1</dim>
					<dim>1152</dim>
				</port>
			</input>
			<output>
				<port id="2" precision="FP32">
					<dim>1</dim>
					<dim>1</dim>
				</port>
			</output>
		</layer>
		<layer id="436" name="model_1/model/conv_handedness/BiasAdd/ReadVariableOp/resource" type="Const" version="opset1">
			<data element_type="f16" shape="1" offset="5284230" size="2" />
			<output>
				<port id="0" precision="FP16" names="model_1/model/conv_handedness/BiasAdd/ReadVariableOp/resource">
					<dim>1</dim>
				</port>
			</output>
		</layer>
		<layer id="437" name="151" type="Convert" version="opset1">
			<data destination_type="f32" />
			<rt_info>
				<attribute name="decompression" version="0" />
			</rt_info>
			<input>
				<port id="0" precision="FP16">
					<dim>1</dim>
				</port>
			</input>
			<output>
				<port id="1" precision="FP32" names="model_1/model/conv_handedness/BiasAdd/ReadVariableOp/resource_dequantize">
					<dim>1</dim>
				</port>
			</output>
		</layer>
		<layer id="438" name="153" type="Add" version="opset1">
			<data auto_broadcast="numpy" />
			<input>
				<port id="0" precision="FP32">
					<dim>1</dim>
					<dim>1</dim>
				</port>
				<port id="1" precision="FP32">
					<dim>1</dim>
				</port>
			</input>
			<output>
				<port id="2" precision="FP32" names="model_1/model/conv_handedness/MatMul;model_1/model/conv_handedness/BiasAdd">
					<dim>1</dim>
					<dim>1</dim>
				</port>
			</output>
		</layer>
		<layer id="439" name="154" type="Sigmoid" version="opset1">
			<input>
				<port id="0" precision="FP32">
					<dim>1</dim>
					<dim>1</dim>
				</port>
			</input>
			<output>
				<port id="1" precision="FP32" names="Identity_2">
					<dim>1</dim>
					<dim>1</dim>
				</port>
			</output>
		</layer>
		<layer id="441" name="model_1/model/conv_handflag/MatMul" type="Const" version="opset1">
			<data element_type="f16" shape="1, 1152" offset="5284232" size="2304" />
			<output>
				<port id="0" precision="FP16" names="model_1/model/conv_handflag/MatMul">
					<dim>1</dim>
					<dim>1152</dim>
				</port>
			</output>
		</layer>
		<layer id="442" name="155" type="Convert" version="opset1">
			<data destination_type="f32" />
			<rt_info>
				<attribute name="decompression" version="0" />
			</rt_info>
			<input>
				<port id="0" precision="FP16">
					<dim>1</dim>
					<dim>1152</dim>
				</port>
			</input>
			<output>
				<port id="1" precision="FP32" names="model_1/model/conv_handflag/MatMul_dequantize">
					<dim>1</dim>
					<dim>1152</dim>
				</port>
			</output>
		</layer>
		<layer id="443" name="MatMul_832" type="MatMul" version="opset1">
			<data transpose_a="false" transpose_b="true" />
			<input>
				<port id="0" precision="FP32">
					<dim>1</dim>
					<dim>1152</dim>
				</port>
				<port id="1" precision="FP32">
					<dim>1</dim>
					<dim>1152</dim>
				</port>
			</input>
			<output>
				<port id="2" precision="FP32">
					<dim>1</dim>
					<dim>1</dim>
				</port>
			</output>
		</layer>
		<layer id="444" name="model_1/model/conv_handflag/BiasAdd/ReadVariableOp/resource" type="Const" version="opset1">
			<data element_type="f16" shape="1" offset="5286536" size="2" />
			<output>
				<port id="0" precision="FP16" names="model_1/model/conv_handflag/BiasAdd/ReadVariableOp/resource">
					<dim>1</dim>
				</port>
			</output>
		</layer>
		<layer id="445" name="156" type="Convert" version="opset1">
			<data destination_type="f32" />
			<rt_info>
				<attribute name="decompression" version="0" />
			</rt_info>
			<input>
				<port id="0" precision="FP16">
					<dim>1</dim>
				</port>
			</input>
			<output>
				<port id="1" precision="FP32" names="model_1/model/conv_handflag/BiasAdd/ReadVariableOp/resource_dequantize">
					<dim>1</dim>
				</port>
			</output>
		</layer>
		<layer id="446" name="157" type="Add" version="opset1">
			<data auto_broadcast="numpy" />
			<input>
				<port id="0" precision="FP32">
					<dim>1</dim>
					<dim>1</dim>
				</port>
				<port id="1" precision="FP32">
					<dim>1</dim>
				</port>
			</input>
			<output>
				<port id="2" precision="FP32" names="model_1/model/conv_handflag/MatMul;model_1/model/conv_handflag/BiasAdd">
					<dim>1</dim>
					<dim>1</dim>
				</port>
			</output>
		</layer>
		<layer id="447" name="158" type="Sigmoid" version="opset1">
			<input>
				<port id="0" precision="FP32">
					<dim>1</dim>
					<dim>1</dim>
				</port>
			</input>
			<output>
				<port id="1" precision="FP32" names="Identity_1">
					<dim>1</dim>
					<dim>1</dim>
				</port>
			</output>
		</layer>
		<layer id="449" name="model_1/model/conv_landmarks/MatMul" type="Const" version="opset1">
			<data element_type="f16" shape="63, 1152" offset="5286538" size="145152" />
			<output>
				<port id="0" precision="FP16" names="model_1/model/conv_landmarks/MatMul">
					<dim>63</dim>
					<dim>1152</dim>
				</port>
			</output>
		</layer>
		<layer id="450" name="160" type="Convert" version="opset1">
			<data destination_type="f32" />
			<rt_info>
				<attribute name="decompression" version="0" />
			</rt_info>
			<input>
				<port id="0" precision="FP16">
					<dim>63</dim>
					<dim>1152</dim>
				</port>
			</input>
			<output>
				<port id="1" precision="FP32" names="model_1/model/conv_landmarks/MatMul_dequantize">
					<dim>63</dim>
					<dim>1152</dim>
				</port>
			</output>
		</layer>
		<layer id="451" name="MatMul_846" type="MatMul" version="opset1">
			<data transpose_a="false" transpose_b="true" />
			<input>
				<port id="0" precision="FP32">
					<dim>1</dim>
					<dim>1152</dim>
				</port>
				<port id="1" precision="FP32">
					<dim>63</dim>
					<dim>1152</dim>
				</port>
			</input>
			<output>
				<port id="2" precision="FP32">
					<dim>1</dim>
					<dim>63</dim>
				</port>
			</output>
		</layer>
		<layer id="452" name="model_1/model/conv_landmarks/BiasAdd/ReadVariableOp/resource" type="Const" version="opset1">
			<data element_type="f16" shape="63" offset="5431690" size="126" />
			<output>
				<port id="0" precision="FP16" names="model_1/model/conv_landmarks/BiasAdd/ReadVariableOp/resource">
					<dim>63</dim>
				</port>
			</output>
		</layer>
		<layer id="453" name="159" type="Convert" version="opset1">
			<data destination_type="f32" />
			<rt_info>
				<attribute name="decompression" version="0" />
			</rt_info>
			<input>
				<port id="0" precision="FP16">
					<dim>63</dim>
				</port>
			</input>
			<output>
				<port id="1" precision="FP32" names="model_1/model/conv_landmarks/BiasAdd/ReadVariableOp/resource_dequantize">
					<dim>63</dim>
				</port>
			</output>
		</layer>
		<layer id="454" name="161" type="Add" version="opset1">
			<data auto_broadcast="numpy" />
			<input>
				<port id="0" precision="FP32">
					<dim>1</dim>
					<dim>63</dim>
				</port>
				<port id="1" precision="FP32">
					<dim>63</dim>
				</port>
			</input>
			<output>
				<port id="2" precision="FP32" names="Identity">
					<dim>1</dim>
					<dim>63</dim>
				</port>
			</output>
		</layer>
		<layer id="455" name="Result_861" type="Result" version="opset1">
			<input>
				<port id="0" precision="FP32">
					<dim>1</dim>
					<dim>63</dim>
				</port>
			</input>
		</layer>
		<layer id="448" name="Result_862" type="Result" version="opset1">
			<input>
				<port id="0" precision="FP32">
					<dim>1</dim>
					<dim>1</dim>
				</port>
			</input>
		</layer>
		<layer id="440" name="Result_863" type="Result" version="opset1">
			<input>
				<port id="0" precision="FP32">
					<dim>1</dim>
					<dim>1</dim>
				</port>
			</input>
		</layer>
		<layer id="432" name="Result_864" type="Result" version="opset1">
			<input>
				<port id="0" precision="FP32">
					<dim>1</dim>
					<dim>63</dim>
				</port>
			</input>
		</layer>
	</layers>
	<edges>
		<edge from-layer="0" from-port="0" to-layer="2" to-port="0" />
		<edge from-layer="1" from-port="0" to-layer="2" to-port="1" />
		<edge from-layer="2" from-port="2" to-layer="5" to-port="0" />
		<edge from-layer="3" from-port="0" to-layer="4" to-port="0" />
		<edge from-layer="4" from-port="1" to-layer="5" to-port="1" />
		<edge from-layer="5" from-port="2" to-layer="8" to-port="0" />
		<edge from-layer="6" from-port="0" to-layer="7" to-port="0" />
		<edge from-layer="7" from-port="1" to-layer="8" to-port="1" />
		<edge from-layer="8" from-port="2" to-layer="9" to-port="0" />
		<edge from-layer="9" from-port="1" to-layer="18" to-port="0" />
		<edge from-layer="10" from-port="0" to-layer="11" to-port="0" />
		<edge from-layer="11" from-port="1" to-layer="13" to-port="0" />
		<edge from-layer="12" from-port="0" to-layer="13" to-port="1" />
		<edge from-layer="13" from-port="2" to-layer="15" to-port="0" />
		<edge from-layer="14" from-port="0" to-layer="15" to-port="1" />
		<edge from-layer="15" from-port="2" to-layer="17" to-port="0" />
		<edge from-layer="16" from-port="0" to-layer="17" to-port="1" />
		<edge from-layer="17" from-port="2" to-layer="18" to-port="1" />
		<edge from-layer="18" from-port="2" to-layer="21" to-port="0" />
		<edge from-layer="19" from-port="0" to-layer="20" to-port="0" />
		<edge from-layer="20" from-port="1" to-layer="21" to-port="1" />
		<edge from-layer="21" from-port="2" to-layer="22" to-port="0" />
		<edge from-layer="22" from-port="1" to-layer="25" to-port="0" />
		<edge from-layer="23" from-port="0" to-layer="24" to-port="0" />
		<edge from-layer="24" from-port="1" to-layer="25" to-port="1" />
		<edge from-layer="25" from-port="2" to-layer="28" to-port="0" />
		<edge from-layer="26" from-port="0" to-layer="27" to-port="0" />
		<edge from-layer="27" from-port="1" to-layer="28" to-port="1" />
		<edge from-layer="28" from-port="2" to-layer="31" to-port="0" />
		<edge from-layer="29" from-port="0" to-layer="30" to-port="0" />
		<edge from-layer="30" from-port="1" to-layer="31" to-port="1" />
		<edge from-layer="31" from-port="2" to-layer="34" to-port="0" />
		<edge from-layer="32" from-port="0" to-layer="33" to-port="0" />
		<edge from-layer="33" from-port="1" to-layer="34" to-port="1" />
		<edge from-layer="34" from-port="2" to-layer="35" to-port="0" />
		<edge from-layer="35" from-port="1" to-layer="44" to-port="0" />
		<edge from-layer="36" from-port="0" to-layer="37" to-port="0" />
		<edge from-layer="37" from-port="1" to-layer="39" to-port="0" />
		<edge from-layer="38" from-port="0" to-layer="39" to-port="1" />
		<edge from-layer="39" from-port="2" to-layer="41" to-port="0" />
		<edge from-layer="40" from-port="0" to-layer="41" to-port="1" />
		<edge from-layer="41" from-port="2" to-layer="43" to-port="0" />
		<edge from-layer="42" from-port="0" to-layer="43" to-port="1" />
		<edge from-layer="43" from-port="2" to-layer="44" to-port="1" />
		<edge from-layer="44" from-port="2" to-layer="47" to-port="0" />
		<edge from-layer="45" from-port="0" to-layer="46" to-port="0" />
		<edge from-layer="46" from-port="1" to-layer="47" to-port="1" />
		<edge from-layer="47" from-port="2" to-layer="48" to-port="0" />
		<edge from-layer="48" from-port="1" to-layer="51" to-port="0" />
		<edge from-layer="49" from-port="0" to-layer="50" to-port="0" />
		<edge from-layer="50" from-port="1" to-layer="51" to-port="1" />
		<edge from-layer="51" from-port="2" to-layer="54" to-port="0" />
		<edge from-layer="52" from-port="0" to-layer="53" to-port="0" />
		<edge from-layer="53" from-port="1" to-layer="54" to-port="1" />
		<edge from-layer="54" from-port="2" to-layer="57" to-port="0" />
		<edge from-layer="54" from-port="2" to-layer="81" to-port="1" />
		<edge from-layer="55" from-port="0" to-layer="56" to-port="0" />
		<edge from-layer="56" from-port="1" to-layer="57" to-port="1" />
		<edge from-layer="57" from-port="2" to-layer="60" to-port="0" />
		<edge from-layer="58" from-port="0" to-layer="59" to-port="0" />
		<edge from-layer="59" from-port="1" to-layer="60" to-port="1" />
		<edge from-layer="60" from-port="2" to-layer="61" to-port="0" />
		<edge from-layer="61" from-port="1" to-layer="70" to-port="0" />
		<edge from-layer="62" from-port="0" to-layer="63" to-port="0" />
		<edge from-layer="63" from-port="1" to-layer="65" to-port="0" />
		<edge from-layer="64" from-port="0" to-layer="65" to-port="1" />
		<edge from-layer="65" from-port="2" to-layer="67" to-port="0" />
		<edge from-layer="66" from-port="0" to-layer="67" to-port="1" />
		<edge from-layer="67" from-port="2" to-layer="69" to-port="0" />
		<edge from-layer="68" from-port="0" to-layer="69" to-port="1" />
		<edge from-layer="69" from-port="2" to-layer="70" to-port="1" />
		<edge from-layer="70" from-port="2" to-layer="73" to-port="0" />
		<edge from-layer="71" from-port="0" to-layer="72" to-port="0" />
		<edge from-layer="72" from-port="1" to-layer="73" to-port="1" />
		<edge from-layer="73" from-port="2" to-layer="74" to-port="0" />
		<edge from-layer="74" from-port="1" to-layer="77" to-port="0" />
		<edge from-layer="75" from-port="0" to-layer="76" to-port="0" />
		<edge from-layer="76" from-port="1" to-layer="77" to-port="1" />
		<edge from-layer="77" from-port="2" to-layer="80" to-port="0" />
		<edge from-layer="78" from-port="0" to-layer="79" to-port="0" />
		<edge from-layer="79" from-port="1" to-layer="80" to-port="1" />
		<edge from-layer="80" from-port="2" to-layer="81" to-port="0" />
		<edge from-layer="81" from-port="2" to-layer="84" to-port="0" />
		<edge from-layer="82" from-port="0" to-layer="83" to-port="0" />
		<edge from-layer="83" from-port="1" to-layer="84" to-port="1" />
		<edge from-layer="84" from-port="2" to-layer="87" to-port="0" />
		<edge from-layer="85" from-port="0" to-layer="86" to-port="0" />
		<edge from-layer="86" from-port="1" to-layer="87" to-port="1" />
		<edge from-layer="87" from-port="2" to-layer="88" to-port="0" />
		<edge from-layer="88" from-port="1" to-layer="97" to-port="0" />
		<edge from-layer="89" from-port="0" to-layer="90" to-port="0" />
		<edge from-layer="90" from-port="1" to-layer="92" to-port="0" />
		<edge from-layer="91" from-port="0" to-layer="92" to-port="1" />
		<edge from-layer="92" from-port="2" to-layer="94" to-port="0" />
		<edge from-layer="93" from-port="0" to-layer="94" to-port="1" />
		<edge from-layer="94" from-port="2" to-layer="96" to-port="0" />
		<edge from-layer="95" from-port="0" to-layer="96" to-port="1" />
		<edge from-layer="96" from-port="2" to-layer="97" to-port="1" />
		<edge from-layer="97" from-port="2" to-layer="100" to-port="0" />
		<edge from-layer="98" from-port="0" to-layer="99" to-port="0" />
		<edge from-layer="99" from-port="1" to-layer="100" to-port="1" />
		<edge from-layer="100" from-port="2" to-layer="101" to-port="0" />
		<edge from-layer="101" from-port="1" to-layer="104" to-port="0" />
		<edge from-layer="102" from-port="0" to-layer="103" to-port="0" />
		<edge from-layer="103" from-port="1" to-layer="104" to-port="1" />
		<edge from-layer="104" from-port="2" to-layer="107" to-port="0" />
		<edge from-layer="105" from-port="0" to-layer="106" to-port="0" />
		<edge from-layer="106" from-port="1" to-layer="107" to-port="1" />
		<edge from-layer="107" from-port="2" to-layer="110" to-port="0" />
		<edge from-layer="107" from-port="2" to-layer="134" to-port="1" />
		<edge from-layer="108" from-port="0" to-layer="109" to-port="0" />
		<edge from-layer="109" from-port="1" to-layer="110" to-port="1" />
		<edge from-layer="110" from-port="2" to-layer="113" to-port="0" />
		<edge from-layer="111" from-port="0" to-layer="112" to-port="0" />
		<edge from-layer="112" from-port="1" to-layer="113" to-port="1" />
		<edge from-layer="113" from-port="2" to-layer="114" to-port="0" />
		<edge from-layer="114" from-port="1" to-layer="123" to-port="0" />
		<edge from-layer="115" from-port="0" to-layer="116" to-port="0" />
		<edge from-layer="116" from-port="1" to-layer="118" to-port="0" />
		<edge from-layer="117" from-port="0" to-layer="118" to-port="1" />
		<edge from-layer="118" from-port="2" to-layer="120" to-port="0" />
		<edge from-layer="119" from-port="0" to-layer="120" to-port="1" />
		<edge from-layer="120" from-port="2" to-layer="122" to-port="0" />
		<edge from-layer="121" from-port="0" to-layer="122" to-port="1" />
		<edge from-layer="122" from-port="2" to-layer="123" to-port="1" />
		<edge from-layer="123" from-port="2" to-layer="126" to-port="0" />
		<edge from-layer="124" from-port="0" to-layer="125" to-port="0" />
		<edge from-layer="125" from-port="1" to-layer="126" to-port="1" />
		<edge from-layer="126" from-port="2" to-layer="127" to-port="0" />
		<edge from-layer="127" from-port="1" to-layer="130" to-port="0" />
		<edge from-layer="128" from-port="0" to-layer="129" to-port="0" />
		<edge from-layer="129" from-port="1" to-layer="130" to-port="1" />
		<edge from-layer="130" from-port="2" to-layer="133" to-port="0" />
		<edge from-layer="131" from-port="0" to-layer="132" to-port="0" />
		<edge from-layer="132" from-port="1" to-layer="133" to-port="1" />
		<edge from-layer="133" from-port="2" to-layer="134" to-port="0" />
		<edge from-layer="134" from-port="2" to-layer="137" to-port="0" />
		<edge from-layer="135" from-port="0" to-layer="136" to-port="0" />
		<edge from-layer="136" from-port="1" to-layer="137" to-port="1" />
		<edge from-layer="137" from-port="2" to-layer="140" to-port="0" />
		<edge from-layer="138" from-port="0" to-layer="139" to-port="0" />
		<edge from-layer="139" from-port="1" to-layer="140" to-port="1" />
		<edge from-layer="140" from-port="2" to-layer="141" to-port="0" />
		<edge from-layer="141" from-port="1" to-layer="150" to-port="0" />
		<edge from-layer="142" from-port="0" to-layer="143" to-port="0" />
		<edge from-layer="143" from-port="1" to-layer="145" to-port="0" />
		<edge from-layer="144" from-port="0" to-layer="145" to-port="1" />
		<edge from-layer="145" from-port="2" to-layer="147" to-port="0" />
		<edge from-layer="146" from-port="0" to-layer="147" to-port="1" />
		<edge from-layer="147" from-port="2" to-layer="149" to-port="0" />
		<edge from-layer="148" from-port="0" to-layer="149" to-port="1" />
		<edge from-layer="149" from-port="2" to-layer="150" to-port="1" />
		<edge from-layer="150" from-port="2" to-layer="153" to-port="0" />
		<edge from-layer="151" from-port="0" to-layer="152" to-port="0" />
		<edge from-layer="152" from-port="1" to-layer="153" to-port="1" />
		<edge from-layer="153" from-port="2" to-layer="154" to-port="0" />
		<edge from-layer="154" from-port="1" to-layer="157" to-port="0" />
		<edge from-layer="155" from-port="0" to-layer="156" to-port="0" />
		<edge from-layer="156" from-port="1" to-layer="157" to-port="1" />
		<edge from-layer="157" from-port="2" to-layer="160" to-port="0" />
		<edge from-layer="158" from-port="0" to-layer="159" to-port="0" />
		<edge from-layer="159" from-port="1" to-layer="160" to-port="1" />
		<edge from-layer="160" from-port="2" to-layer="163" to-port="0" />
		<edge from-layer="160" from-port="2" to-layer="187" to-port="1" />
		<edge from-layer="161" from-port="0" to-layer="162" to-port="0" />
		<edge from-layer="162" from-port="1" to-layer="163" to-port="1" />
		<edge from-layer="163" from-port="2" to-layer="166" to-port="0" />
		<edge from-layer="164" from-port="0" to-layer="165" to-port="0" />
		<edge from-layer="165" from-port="1" to-layer="166" to-port="1" />
		<edge from-layer="166" from-port="2" to-layer="167" to-port="0" />
		<edge from-layer="167" from-port="1" to-layer="176" to-port="0" />
		<edge from-layer="168" from-port="0" to-layer="169" to-port="0" />
		<edge from-layer="169" from-port="1" to-layer="171" to-port="0" />
		<edge from-layer="170" from-port="0" to-layer="171" to-port="1" />
		<edge from-layer="171" from-port="2" to-layer="173" to-port="0" />
		<edge from-layer="172" from-port="0" to-layer="173" to-port="1" />
		<edge from-layer="173" from-port="2" to-layer="175" to-port="0" />
		<edge from-layer="174" from-port="0" to-layer="175" to-port="1" />
		<edge from-layer="175" from-port="2" to-layer="176" to-port="1" />
		<edge from-layer="176" from-port="2" to-layer="179" to-port="0" />
		<edge from-layer="177" from-port="0" to-layer="178" to-port="0" />
		<edge from-layer="178" from-port="1" to-layer="179" to-port="1" />
		<edge from-layer="179" from-port="2" to-layer="180" to-port="0" />
		<edge from-layer="180" from-port="1" to-layer="183" to-port="0" />
		<edge from-layer="181" from-port="0" to-layer="182" to-port="0" />
		<edge from-layer="182" from-port="1" to-layer="183" to-port="1" />
		<edge from-layer="183" from-port="2" to-layer="186" to-port="0" />
		<edge from-layer="184" from-port="0" to-layer="185" to-port="0" />
		<edge from-layer="185" from-port="1" to-layer="186" to-port="1" />
		<edge from-layer="186" from-port="2" to-layer="187" to-port="0" />
		<edge from-layer="187" from-port="2" to-layer="190" to-port="0" />
		<edge from-layer="187" from-port="2" to-layer="214" to-port="1" />
		<edge from-layer="188" from-port="0" to-layer="189" to-port="0" />
		<edge from-layer="189" from-port="1" to-layer="190" to-port="1" />
		<edge from-layer="190" from-port="2" to-layer="193" to-port="0" />
		<edge from-layer="191" from-port="0" to-layer="192" to-port="0" />
		<edge from-layer="192" from-port="1" to-layer="193" to-port="1" />
		<edge from-layer="193" from-port="2" to-layer="194" to-port="0" />
		<edge from-layer="194" from-port="1" to-layer="203" to-port="0" />
		<edge from-layer="195" from-port="0" to-layer="196" to-port="0" />
		<edge from-layer="196" from-port="1" to-layer="198" to-port="0" />
		<edge from-layer="197" from-port="0" to-layer="198" to-port="1" />
		<edge from-layer="198" from-port="2" to-layer="200" to-port="0" />
		<edge from-layer="199" from-port="0" to-layer="200" to-port="1" />
		<edge from-layer="200" from-port="2" to-layer="202" to-port="0" />
		<edge from-layer="201" from-port="0" to-layer="202" to-port="1" />
		<edge from-layer="202" from-port="2" to-layer="203" to-port="1" />
		<edge from-layer="203" from-port="2" to-layer="206" to-port="0" />
		<edge from-layer="204" from-port="0" to-layer="205" to-port="0" />
		<edge from-layer="205" from-port="1" to-layer="206" to-port="1" />
		<edge from-layer="206" from-port="2" to-layer="207" to-port="0" />
		<edge from-layer="207" from-port="1" to-layer="210" to-port="0" />
		<edge from-layer="208" from-port="0" to-layer="209" to-port="0" />
		<edge from-layer="209" from-port="1" to-layer="210" to-port="1" />
		<edge from-layer="210" from-port="2" to-layer="213" to-port="0" />
		<edge from-layer="211" from-port="0" to-layer="212" to-port="0" />
		<edge from-layer="212" from-port="1" to-layer="213" to-port="1" />
		<edge from-layer="213" from-port="2" to-layer="214" to-port="0" />
		<edge from-layer="214" from-port="2" to-layer="217" to-port="0" />
		<edge from-layer="215" from-port="0" to-layer="216" to-port="0" />
		<edge from-layer="216" from-port="1" to-layer="217" to-port="1" />
		<edge from-layer="217" from-port="2" to-layer="220" to-port="0" />
		<edge from-layer="218" from-port="0" to-layer="219" to-port="0" />
		<edge from-layer="219" from-port="1" to-layer="220" to-port="1" />
		<edge from-layer="220" from-port="2" to-layer="221" to-port="0" />
		<edge from-layer="221" from-port="1" to-layer="230" to-port="0" />
		<edge from-layer="222" from-port="0" to-layer="223" to-port="0" />
		<edge from-layer="223" from-port="1" to-layer="225" to-port="0" />
		<edge from-layer="224" from-port="0" to-layer="225" to-port="1" />
		<edge from-layer="225" from-port="2" to-layer="227" to-port="0" />
		<edge from-layer="226" from-port="0" to-layer="227" to-port="1" />
		<edge from-layer="227" from-port="2" to-layer="229" to-port="0" />
		<edge from-layer="228" from-port="0" to-layer="229" to-port="1" />
		<edge from-layer="229" from-port="2" to-layer="230" to-port="1" />
		<edge from-layer="230" from-port="2" to-layer="233" to-port="0" />
		<edge from-layer="231" from-port="0" to-layer="232" to-port="0" />
		<edge from-layer="232" from-port="1" to-layer="233" to-port="1" />
		<edge from-layer="233" from-port="2" to-layer="234" to-port="0" />
		<edge from-layer="234" from-port="1" to-layer="237" to-port="0" />
		<edge from-layer="235" from-port="0" to-layer="236" to-port="0" />
		<edge from-layer="236" from-port="1" to-layer="237" to-port="1" />
		<edge from-layer="237" from-port="2" to-layer="240" to-port="0" />
		<edge from-layer="238" from-port="0" to-layer="239" to-port="0" />
		<edge from-layer="239" from-port="1" to-layer="240" to-port="1" />
		<edge from-layer="240" from-port="2" to-layer="243" to-port="0" />
		<edge from-layer="240" from-port="2" to-layer="267" to-port="1" />
		<edge from-layer="241" from-port="0" to-layer="242" to-port="0" />
		<edge from-layer="242" from-port="1" to-layer="243" to-port="1" />
		<edge from-layer="243" from-port="2" to-layer="246" to-port="0" />
		<edge from-layer="244" from-port="0" to-layer="245" to-port="0" />
		<edge from-layer="245" from-port="1" to-layer="246" to-port="1" />
		<edge from-layer="246" from-port="2" to-layer="247" to-port="0" />
		<edge from-layer="247" from-port="1" to-layer="256" to-port="0" />
		<edge from-layer="248" from-port="0" to-layer="249" to-port="0" />
		<edge from-layer="249" from-port="1" to-layer="251" to-port="0" />
		<edge from-layer="250" from-port="0" to-layer="251" to-port="1" />
		<edge from-layer="251" from-port="2" to-layer="253" to-port="0" />
		<edge from-layer="252" from-port="0" to-layer="253" to-port="1" />
		<edge from-layer="253" from-port="2" to-layer="255" to-port="0" />
		<edge from-layer="254" from-port="0" to-layer="255" to-port="1" />
		<edge from-layer="255" from-port="2" to-layer="256" to-port="1" />
		<edge from-layer="256" from-port="2" to-layer="259" to-port="0" />
		<edge from-layer="257" from-port="0" to-layer="258" to-port="0" />
		<edge from-layer="258" from-port="1" to-layer="259" to-port="1" />
		<edge from-layer="259" from-port="2" to-layer="260" to-port="0" />
		<edge from-layer="260" from-port="1" to-layer="263" to-port="0" />
		<edge from-layer="261" from-port="0" to-layer="262" to-port="0" />
		<edge from-layer="262" from-port="1" to-layer="263" to-port="1" />
		<edge from-layer="263" from-port="2" to-layer="266" to-port="0" />
		<edge from-layer="264" from-port="0" to-layer="265" to-port="0" />
		<edge from-layer="265" from-port="1" to-layer="266" to-port="1" />
		<edge from-layer="266" from-port="2" to-layer="267" to-port="0" />
		<edge from-layer="267" from-port="2" to-layer="270" to-port="0" />
		<edge from-layer="267" from-port="2" to-layer="294" to-port="1" />
		<edge from-layer="268" from-port="0" to-layer="269" to-port="0" />
		<edge from-layer="269" from-port="1" to-layer="270" to-port="1" />
		<edge from-layer="270" from-port="2" to-layer="273" to-port="0" />
		<edge from-layer="271" from-port="0" to-layer="272" to-port="0" />
		<edge from-layer="272" from-port="1" to-layer="273" to-port="1" />
		<edge from-layer="273" from-port="2" to-layer="274" to-port="0" />
		<edge from-layer="274" from-port="1" to-layer="283" to-port="0" />
		<edge from-layer="275" from-port="0" to-layer="276" to-port="0" />
		<edge from-layer="276" from-port="1" to-layer="278" to-port="0" />
		<edge from-layer="277" from-port="0" to-layer="278" to-port="1" />
		<edge from-layer="278" from-port="2" to-layer="280" to-port="0" />
		<edge from-layer="279" from-port="0" to-layer="280" to-port="1" />
		<edge from-layer="280" from-port="2" to-layer="282" to-port="0" />
		<edge from-layer="281" from-port="0" to-layer="282" to-port="1" />
		<edge from-layer="282" from-port="2" to-layer="283" to-port="1" />
		<edge from-layer="283" from-port="2" to-layer="286" to-port="0" />
		<edge from-layer="284" from-port="0" to-layer="285" to-port="0" />
		<edge from-layer="285" from-port="1" to-layer="286" to-port="1" />
		<edge from-layer="286" from-port="2" to-layer="287" to-port="0" />
		<edge from-layer="287" from-port="1" to-layer="290" to-port="0" />
		<edge from-layer="288" from-port="0" to-layer="289" to-port="0" />
		<edge from-layer="289" from-port="1" to-layer="290" to-port="1" />
		<edge from-layer="290" from-port="2" to-layer="293" to-port="0" />
		<edge from-layer="291" from-port="0" to-layer="292" to-port="0" />
		<edge from-layer="292" from-port="1" to-layer="293" to-port="1" />
		<edge from-layer="293" from-port="2" to-layer="294" to-port="0" />
		<edge from-layer="294" from-port="2" to-layer="297" to-port="0" />
		<edge from-layer="295" from-port="0" to-layer="296" to-port="0" />
		<edge from-layer="296" from-port="1" to-layer="297" to-port="1" />
		<edge from-layer="297" from-port="2" to-layer="300" to-port="0" />
		<edge from-layer="298" from-port="0" to-layer="299" to-port="0" />
		<edge from-layer="299" from-port="1" to-layer="300" to-port="1" />
		<edge from-layer="300" from-port="2" to-layer="301" to-port="0" />
		<edge from-layer="301" from-port="1" to-layer="310" to-port="0" />
		<edge from-layer="302" from-port="0" to-layer="303" to-port="0" />
		<edge from-layer="303" from-port="1" to-layer="305" to-port="0" />
		<edge from-layer="304" from-port="0" to-layer="305" to-port="1" />
		<edge from-layer="305" from-port="2" to-layer="307" to-port="0" />
		<edge from-layer="306" from-port="0" to-layer="307" to-port="1" />
		<edge from-layer="307" from-port="2" to-layer="309" to-port="0" />
		<edge from-layer="308" from-port="0" to-layer="309" to-port="1" />
		<edge from-layer="309" from-port="2" to-layer="310" to-port="1" />
		<edge from-layer="310" from-port="2" to-layer="313" to-port="0" />
		<edge from-layer="311" from-port="0" to-layer="312" to-port="0" />
		<edge from-layer="312" from-port="1" to-layer="313" to-port="1" />
		<edge from-layer="313" from-port="2" to-layer="314" to-port="0" />
		<edge from-layer="314" from-port="1" to-layer="317" to-port="0" />
		<edge from-layer="315" from-port="0" to-layer="316" to-port="0" />
		<edge from-layer="316" from-port="1" to-layer="317" to-port="1" />
		<edge from-layer="317" from-port="2" to-layer="320" to-port="0" />
		<edge from-layer="318" from-port="0" to-layer="319" to-port="0" />
		<edge from-layer="319" from-port="1" to-layer="320" to-port="1" />
		<edge from-layer="320" from-port="2" to-layer="323" to-port="0" />
		<edge from-layer="320" from-port="2" to-layer="347" to-port="1" />
		<edge from-layer="321" from-port="0" to-layer="322" to-port="0" />
		<edge from-layer="322" from-port="1" to-layer="323" to-port="1" />
		<edge from-layer="323" from-port="2" to-layer="326" to-port="0" />
		<edge from-layer="324" from-port="0" to-layer="325" to-port="0" />
		<edge from-layer="325" from-port="1" to-layer="326" to-port="1" />
		<edge from-layer="326" from-port="2" to-layer="327" to-port="0" />
		<edge from-layer="327" from-port="1" to-layer="336" to-port="0" />
		<edge from-layer="328" from-port="0" to-layer="329" to-port="0" />
		<edge from-layer="329" from-port="1" to-layer="331" to-port="0" />
		<edge from-layer="330" from-port="0" to-layer="331" to-port="1" />
		<edge from-layer="331" from-port="2" to-layer="333" to-port="0" />
		<edge from-layer="332" from-port="0" to-layer="333" to-port="1" />
		<edge from-layer="333" from-port="2" to-layer="335" to-port="0" />
		<edge from-layer="334" from-port="0" to-layer="335" to-port="1" />
		<edge from-layer="335" from-port="2" to-layer="336" to-port="1" />
		<edge from-layer="336" from-port="2" to-layer="339" to-port="0" />
		<edge from-layer="337" from-port="0" to-layer="338" to-port="0" />
		<edge from-layer="338" from-port="1" to-layer="339" to-port="1" />
		<edge from-layer="339" from-port="2" to-layer="340" to-port="0" />
		<edge from-layer="340" from-port="1" to-layer="343" to-port="0" />
		<edge from-layer="341" from-port="0" to-layer="342" to-port="0" />
		<edge from-layer="342" from-port="1" to-layer="343" to-port="1" />
		<edge from-layer="343" from-port="2" to-layer="346" to-port="0" />
		<edge from-layer="344" from-port="0" to-layer="345" to-port="0" />
		<edge from-layer="345" from-port="1" to-layer="346" to-port="1" />
		<edge from-layer="346" from-port="2" to-layer="347" to-port="0" />
		<edge from-layer="347" from-port="2" to-layer="350" to-port="0" />
		<edge from-layer="347" from-port="2" to-layer="374" to-port="1" />
		<edge from-layer="348" from-port="0" to-layer="349" to-port="0" />
		<edge from-layer="349" from-port="1" to-layer="350" to-port="1" />
		<edge from-layer="350" from-port="2" to-layer="353" to-port="0" />
		<edge from-layer="351" from-port="0" to-layer="352" to-port="0" />
		<edge from-layer="352" from-port="1" to-layer="353" to-port="1" />
		<edge from-layer="353" from-port="2" to-layer="354" to-port="0" />
		<edge from-layer="354" from-port="1" to-layer="363" to-port="0" />
		<edge from-layer="355" from-port="0" to-layer="356" to-port="0" />
		<edge from-layer="356" from-port="1" to-layer="358" to-port="0" />
		<edge from-layer="357" from-port="0" to-layer="358" to-port="1" />
		<edge from-layer="358" from-port="2" to-layer="360" to-port="0" />
		<edge from-layer="359" from-port="0" to-layer="360" to-port="1" />
		<edge from-layer="360" from-port="2" to-layer="362" to-port="0" />
		<edge from-layer="361" from-port="0" to-layer="362" to-port="1" />
		<edge from-layer="362" from-port="2" to-layer="363" to-port="1" />
		<edge from-layer="363" from-port="2" to-layer="366" to-port="0" />
		<edge from-layer="364" from-port="0" to-layer="365" to-port="0" />
		<edge from-layer="365" from-port="1" to-layer="366" to-port="1" />
		<edge from-layer="366" from-port="2" to-layer="367" to-port="0" />
		<edge from-layer="367" from-port="1" to-layer="370" to-port="0" />
		<edge from-layer="368" from-port="0" to-layer="369" to-port="0" />
		<edge from-layer="369" from-port="1" to-layer="370" to-port="1" />
		<edge from-layer="370" from-port="2" to-layer="373" to-port="0" />
		<edge from-layer="371" from-port="0" to-layer="372" to-port="0" />
		<edge from-layer="372" from-port="1" to-layer="373" to-port="1" />
		<edge from-layer="373" from-port="2" to-layer="374" to-port="0" />
		<edge from-layer="374" from-port="2" to-layer="377" to-port="0" />
		<edge from-layer="374" from-port="2" to-layer="401" to-port="1" />
		<edge from-layer="375" from-port="0" to-layer="376" to-port="0" />
		<edge from-layer="376" from-port="1" to-layer="377" to-port="1" />
		<edge from-layer="377" from-port="2" to-layer="380" to-port="0" />
		<edge from-layer="378" from-port="0" to-layer="379" to-port="0" />
		<edge from-layer="379" from-port="1" to-layer="380" to-port="1" />
		<edge from-layer="380" from-port="2" to-layer="381" to-port="0" />
		<edge from-layer="381" from-port="1" to-layer="390" to-port="0" />
		<edge from-layer="382" from-port="0" to-layer="383" to-port="0" />
		<edge from-layer="383" from-port="1" to-layer="385" to-port="0" />
		<edge from-layer="384" from-port="0" to-layer="385" to-port="1" />
		<edge from-layer="385" from-port="2" to-layer="387" to-port="0" />
		<edge from-layer="386" from-port="0" to-layer="387" to-port="1" />
		<edge from-layer="387" from-port="2" to-layer="389" to-port="0" />
		<edge from-layer="388" from-port="0" to-layer="389" to-port="1" />
		<edge from-layer="389" from-port="2" to-layer="390" to-port="1" />
		<edge from-layer="390" from-port="2" to-layer="393" to-port="0" />
		<edge from-layer="391" from-port="0" to-layer="392" to-port="0" />
		<edge from-layer="392" from-port="1" to-layer="393" to-port="1" />
		<edge from-layer="393" from-port="2" to-layer="394" to-port="0" />
		<edge from-layer="394" from-port="1" to-layer="397" to-port="0" />
		<edge from-layer="395" from-port="0" to-layer="396" to-port="0" />
		<edge from-layer="396" from-port="1" to-layer="397" to-port="1" />
		<edge from-layer="397" from-port="2" to-layer="400" to-port="0" />
		<edge from-layer="398" from-port="0" to-layer="399" to-port="0" />
		<edge from-layer="399" from-port="1" to-layer="400" to-port="1" />
		<edge from-layer="400" from-port="2" to-layer="401" to-port="0" />
		<edge from-layer="401" from-port="2" to-layer="404" to-port="0" />
		<edge from-layer="402" from-port="0" to-layer="403" to-port="0" />
		<edge from-layer="403" from-port="1" to-layer="404" to-port="1" />
		<edge from-layer="404" from-port="2" to-layer="407" to-port="0" />
		<edge from-layer="405" from-port="0" to-layer="406" to-port="0" />
		<edge from-layer="406" from-port="1" to-layer="407" to-port="1" />
		<edge from-layer="407" from-port="2" to-layer="408" to-port="0" />
		<edge from-layer="408" from-port="1" to-layer="417" to-port="0" />
		<edge from-layer="409" from-port="0" to-layer="410" to-port="0" />
		<edge from-layer="410" from-port="1" to-layer="412" to-port="0" />
		<edge from-layer="411" from-port="0" to-layer="412" to-port="1" />
		<edge from-layer="412" from-port="2" to-layer="414" to-port="0" />
		<edge from-layer="413" from-port="0" to-layer="414" to-port="1" />
		<edge from-layer="414" from-port="2" to-layer="416" to-port="0" />
		<edge from-layer="415" from-port="0" to-layer="416" to-port="1" />
		<edge from-layer="416" from-port="2" to-layer="417" to-port="1" />
		<edge from-layer="417" from-port="2" to-layer="420" to-port="0" />
		<edge from-layer="418" from-port="0" to-layer="419" to-port="0" />
		<edge from-layer="419" from-port="1" to-layer="420" to-port="1" />
		<edge from-layer="420" from-port="2" to-layer="421" to-port="0" />
		<edge from-layer="421" from-port="1" to-layer="423" to-port="0" />
		<edge from-layer="422" from-port="0" to-layer="423" to-port="1" />
		<edge from-layer="423" from-port="2" to-layer="425" to-port="0" />
		<edge from-layer="424" from-port="0" to-layer="425" to-port="1" />
		<edge from-layer="425" from-port="2" to-layer="428" to-port="0" />
		<edge from-layer="425" from-port="2" to-layer="435" to-port="0" />
		<edge from-layer="425" from-port="2" to-layer="443" to-port="0" />
		<edge from-layer="425" from-port="2" to-layer="451" to-port="0" />
		<edge from-layer="426" from-port="0" to-layer="427" to-port="0" />
		<edge from-layer="427" from-port="1" to-layer="428" to-port="1" />
		<edge from-layer="428" from-port="2" to-layer="431" to-port="0" />
		<edge from-layer="429" from-port="0" to-layer="430" to-port="0" />
		<edge from-layer="430" from-port="1" to-layer="431" to-port="1" />
		<edge from-layer="431" from-port="2" to-layer="432" to-port="0" />
		<edge from-layer="433" from-port="0" to-layer="434" to-port="0" />
		<edge from-layer="434" from-port="1" to-layer="435" to-port="1" />
		<edge from-layer="435" from-port="2" to-layer="438" to-port="0" />
		<edge from-layer="436" from-port="0" to-layer="437" to-port="0" />
		<edge from-layer="437" from-port="1" to-layer="438" to-port="1" />
		<edge from-layer="438" from-port="2" to-layer="439" to-port="0" />
		<edge from-layer="439" from-port="1" to-layer="440" to-port="0" />
		<edge from-layer="441" from-port="0" to-layer="442" to-port="0" />
		<edge from-layer="442" from-port="1" to-layer="443" to-port="1" />
		<edge from-layer="443" from-port="2" to-layer="446" to-port="0" />
		<edge from-layer="444" from-port="0" to-layer="445" to-port="0" />
		<edge from-layer="445" from-port="1" to-layer="446" to-port="1" />
		<edge from-layer="446" from-port="2" to-layer="447" to-port="0" />
		<edge from-layer="447" from-port="1" to-layer="448" to-port="0" />
		<edge from-layer="449" from-port="0" to-layer="450" to-port="0" />
		<edge from-layer="450" from-port="1" to-layer="451" to-port="1" />
		<edge from-layer="451" from-port="2" to-layer="454" to-port="0" />
		<edge from-layer="452" from-port="0" to-layer="453" to-port="0" />
		<edge from-layer="453" from-port="1" to-layer="454" to-port="1" />
		<edge from-layer="454" from-port="2" to-layer="455" to-port="0" />
	</edges>
	<rt_info>
		<Runtime_version value="2024.3.0-16041-1e3b88e4e3f-releases/2024/3" />
		<conversion_parameters>
			<is_python_object value="False" />
			<output_model value="./openvino_model/hand_landmark_full" />
		</conversion_parameters>
	</rt_info>
</net>
